STGAT/STGAT/checkpoint/checkpoint100.pth.tar (torch, 230119 bytes, 38 tensors)

gatencoder.gat_net.layer_stack.0.w f4 [4, 32, 16]
00000000: 62ea 4ebd 70cb 21bd ad3b b6bd 60c0 e13b
00000010: e920 053e f58c a6bd 00ec 603b 958c 0c3e
00000020: 24ec 183d e23c 96bd 00f6 50bb 40d1 873b
00000030: 28d8 5abd 0eda e93d 9089 15bd 5821 873c
00000040: 05b5 f4bd b052 813d d2d3 c0bd 80d6 983c
00000050: 2450 193d 436c 093e 4a79 32bd 5661 93bd
00000060: f0d7 933c d0df 283d c6af 2ebd 8057 333d
00000070: 80b0 3bbc d0b0 41bc 064e 19bd 18b0 a8bd
00000080: 98d4 85bc e45e d13d 9e45 a6bd fa16 84bd
00000090: ea8a f73d 6a17 b43d e837 763d 0069 6cbc
000000a0: c87a 5c3d 2f1f 053e 06d3 e9bd 34c2 05be
000000b0: 1ea1 b23d 8051 083d afa8 a1bd 600e babc
000000c0: ff69 eebd 5062 bebc 806f ac3c 0a5f d1bd
000000d0: a43b a83d e2f0 b83d a0d6 b33b a75a 9cbd
000000e0: dd9c 01be 7808 8f3c e8e0 a53c f0c3 5e3c
000000f0: ca2e bf3d 348b 623d 665e 983d 60e7 7dbc
00000100: 6099 543d 5600 d9bd 6096 cc3d 3964 bebd
00000110: 768f e33d 598c 90bd 6882 92bd 6e91 06be
00000120: 22f8 aabd 10bd 323c 774c 8fbd 6a68 823d
00000130: 5c21 a7bc d969 113e 17ff ebbd 5e7e babd
00000140: de26 a53d 8bff 8dbd ba3f 8f3d 0cc5 e0bc
00000150: 04c1 a2bd dc40 ca3d 03bc 033e 5743 0a3e
00000160: 5a1b 94bd 3722 a7bd 6083 f3bb 506b 4bbc
00000170: 207f fe3b 5c3e 133d a419 0b3d 785d a33c
00000180: 6cfa 023d 3053 113c 200d a63d 00d8 d43a
00000190: a16e 0e3e 00df 0fbb 9041 d7bc 79c7 ecbd
000001a0: 34a0 be3d 33be 13be 0005 f5bd 8069 aa3b
000001b0: cfbb 093e fa0f df3d 9a75 e93d e827 893d
000001c0: 02c2 f0bd 2271 8cbd 14e7 943d a8f2 b83c
000001d0: 84f7 b53d cadc 18bd c035 323b e86d e2bd
000001e0: 2005 983d 2ab7 f1bd beea 0fbe 2cff f5bc
000001f0: 4082 a43d 1088 9b3c 3a8d e63d 8432 683d
00000200: 04b1 593d 8020 0cbe 47b0 0a3e 90eb 653c
00000210: 9040 95bc 5c90 4e3d 2818 90bd 9c2b b23d
00000220: 52a8 bebd 1c1a debd 2cc9 9d3d a489 06bd
00000230: 002d ec3b c011 d0bb 979c 0fbe 6a8b e53d
00000240: c65f e53d 0a12 fc3d a073 f1bd 1068 383d
00000250: b467 57bd 007d 2ebc f7a6 f6bd 065d ad3d
00000260: e869 e8bd b8e8 d73d e0c7 d33c 64a3 d33d
00000270: 510a 103e 46d7 44bd 30d2 6f3c ba50 ad3d
00000280: 51df 063e a85f d23c 3d14 83bd 74c4 c33d
00000290: e888 df3c 2664 fc3d 60e0 c03b 20dc 9bbb
000002a0: 28a7 8d3d f917 043e 9818 483d d32e 9dbd
000002b0: 83bc c1bd e495 5cbd 095d 113e e00f e53c
000002c0: 1407 b83d 3408 dcbc f6bb c73d 2acd 9a3d
000002d0: 8d1f f6bd 8004 fdbb 7cb1 ac3d f0b8 7a3c
000002e0: 9017 e13c 5594 033e 7811 e0bc a05d aa3c
000002f0: 1c1c bebd 0041 1dbb fe79 aebd f684 a3bd
00000300: 71c0 12be da20 ecbd 7607 d13d 34a3 86bd
00000310: cce9 1f3d 28f1 f43c d239 dabd e0fe 6abd
00000320: e289 ffbd 5c7a 7a3d fcdc f4bd 18ef 2a3d
00000330: d43d 793d 9824 d5bc 15e3 99bd 6c4a 47bd
00000340: 908b 10be 18f4 333d 8244 bd3d 5479 c3bd
00000350: 2802 c6bd 00f8 5fbb 3061 403c 7d6a 033e
00000360: e280 f83d 011f 09be 8351 073e 0097 a33c
00000370: f839 debd 941c 05be 1937 80bd 8459 78bd
00000380: a083 f93c e85c 0dbe 00a5 393b 5873 41bd
00000390: 8411 3e3d 80de fdba d05b 503c acd4 33bd
000003a0: 5e0a 62bd 543e cc3d 72e6 c4bd 5a75 ff3d
000003b0: ec6b 6f3d 5cd8 213d 765c 03bd 18fc 86bc
000003c0: 420d e83d 88d9 8e3d af70 033e 5583 dbbd
000003d0: 7097 363c d0f6 43bc dfd7 0f3e 858f 0a3e
000003e0: 883c 053d 1768 133e 7460 373d 60fa e53b
000003f0: 5b73 12be e4ef d9bc 4c17 9fbd cc71 febd
-0.050516494 -0.039500654 -0.08898101 0.006889388 0.13000835 -0.08132354 0.0034320354 0.13725503
0.037334576 -0.07335831 -0.0031884909 0.0041448176 -0.0534288 0.11418544 -0.036508143 0.016495392
-0.11948589 0.063145995 -0.094154015 0.01865697 0.037429944 0.13420205 -0.0435727 -0.071963
0.018047303 0.04122907 -0.0426481 0.04378462 -0.011455655 -0.011821941 -0.037427925 -0.08236712
-0.016336724 0.10223177 -0.08118747 -0.06449695 0.12087043 0.087935284 0.06011191 -0.014429331
0.05382803 0.13000177 -0.11417203 -0.13062364 0.08722137 0.03328085 -0.07893502 -0.022711933
-0.11641311 -0.023240238 0.021049261 -0.102232054 0.082145005 0.0903032 0.005488232 -0.07634478
-0.12657495 0.017460093 0.020248845 0.01359652 0.09335096 0.055308536 0.0743988 -0.015497059
0.051904082 -0.10595767 0.09989619 -0.0929646 0.111113474 -0.07058019 -0.07153779 -0.13141415
-0.08348109 0.010909334 -0.069970064 0.06367572 -0.02040165 0.14200534 -0.11523264 -0.09106134
0.08064054 -0.069335066 0.06994577 -0.02743771 -0.07946971 0.09875652 0.1286469 0.1350225
-0.072317794 -0.08160823 -0.0074314326 -0.012415722 0.0077666193 0.035948142 0.03396 0.01994203
0.031977102 0.008869931 0.08107972 0.001623869 0.13909389 -0.0021952987 -0.02627638 -0.11561484
0.093079 -0.14428024 -0.11963844 0.005200565 0.1345055 0.10891719 0.11399384 0.06697065
-0.11755754 -0.06857516 0.07270637 0.022576645 0.088851005 -0.037319936 0.0027192682 -0.11056119
0.074228525 -0.11802514 -0.14054391 -0.030028902 0.08032656 0.018985778 0.112574056 0.0566888
0.05314733 -0.13684273 0.13543807 0.014033213 -0.018219262 0.05043064 -0.070358574 0.08699724
-0.09309448 -0.10844824 0.07704386 -0.032846108 0.007207513 -0.006349772 -0.14024578 0.11208232
0.11199908 0.12308128 -0.11789632 0.045021117 -0.052589133 -0.0106499195 -0.12043565 0.084650084
-0.11348325 0.105424345 0.025852144 0.10333899 0.14066435 -0.048056863 0.014637515 0.08462663
0.13171126 0.025680378 -0.064003445 0.09558955 0.027286962 0.12323789 0.0058861226 -0.0047564656
0.06916648 0.1289977 0.04885158 -0.07674947 -0.09459784 -0.053853884 0.14195646 0.027961671
0.08985725 -0.02685938 0.097526476 0.07558663 -0.120177366 -0.0077214837 0.0843229 0.015302882
0.027477056 0.12849553 -0.02735208 0.020796597 -0.09282705 -0.0023995042 -0.08519362 -0.07984345
-0.14331223 -0.115297034 0.10206501 -0.06574097 0.039041325 0.029900149 -0.106555596 -0.057371974
-0.12477471 0.061151847 -0.11956212 0.041731924 0.06084998 -0.026018426 -0.075140156 -0.04865496
-0.14115739 0.043933958 0.092415825 -0.09544626 -0.0966838 -0.003417492 0.011741921 0.12833591
0.121339574 -0.13390733 0.13214688 0.019969463 -0.108509004 -0.12999183 -0.06260509 -0.060632244
0.030458272 -0.13804972 0.0028327107 -0.04722914 0.046403423 -0.0019368678 0.012717202 -0.04390399
-0.05518567 0.09972826 -0.096142665 0.12473555 0.05845253 0.039512977 -0.0320706 -0.01647763
0.11330654 0.069750845 0.12835954 -0.10718409 0.011144504 -0.0119607 0.14047192 0.13531311
0.03252843 0.14395176 0.04476972 0.0070183724 -0.14301817 -0.026603647 -0.077681154 -0.12424049

gatencoder.gat_net.layer_stack.0.a_src f4 [4, 16, 1]
00000000: 4ae2 2dbf 4bc5 0dbf f8dd 28bf 53c5 063f
00000010: 3678 a03e 38fb 2f3e 589d a9bd c245 fdbe
00000020: 2e80 cd3e 9b5d 053f c1db 133f f46e 343e
00000030: 087b 943d 7148 e2be b07e 2abd 1afd ed3e
00000040: 0c1b 433e 7006 d3bd 645c 5f3e 835c 2e3f
00000050: 67bd 37bf 2059 aebc 5c27 79be d922 1cbf
00000060: 9459 6ebe 80d1 23be f885 d3bd 3eaf 3abf
00000070: f517 3dbf c977 393f f737 eabe dc0a 783e
00000080: e8c5 293e c0c8 e9bd caec 1cbf 4896 1fbe
00000090: d1c3 2d3f 6410 3c3e a096 a93c d902 3abf
000000a0: a8f3 6bbe 00a1 e93c b587 02bf c49f 2ebf
000000b0: dbfd d0be b6a9 dc3e 2006 8bbe a8ab 533e
000000c0: 5614 983e 2171 403f 00f1 65bd 60b5 b1bc
000000d0: 3077 0c3e c473 1dbf 64fa 693e 478f 34bf
000000e0: 00d8 b5b9 c24c be3e 4007 cdbd 035b 053f
000000f0: f8f4 03bf bc59 76be 308c 12bf d6aa 963e
-0.67923415 -0.5537917 -0.659637 0.5264484 0.31341714 0.17185676 -0.08281964 -0.49467283
0.40136856 0.52095956 0.5775719 0.1762045 0.07250029 -0.44195893 -0.041624725 0.46482164
0.19053286 -0.10303962 0.21812588 0.6810991 -0.7177338 -0.021282732 -0.2433142 -0.60990673
-0.23276359 -0.15997887 -0.10328287 -0.7292365 -0.7386468 0.724484 -0.45745823 0.24222893
0.16579401 -0.11415243 -0.6129881 -0.15584671 0.6787692 0.18365628 0.020701706 -0.72660595
-0.23042166 0.028519154 -0.5098832 -0.68212533 -0.40818676 0.4309823 -0.2715311 0.2067095
0.29703015 0.7517262 -0.05613804 -0.021692932 0.13717341 -0.6150477 0.22849423 -0.70531124
-0.00034683943 0.37167937 -0.100111485 0.52092 -0.5154567 -0.24057668 -0.5724516 0.29427212

gatencoder.gat_net.layer_stack.0.a_dst f4 [4, 16, 1]
00000000: 343c 96be c46e acbe 3060 3fbf 8c3f 1abe
00000010: 88d0 04bf e7dd 3c3f 67be 063f c2d4 e63e
00000020: 05ad 293f 0941 023f ce96 45bf 3078 46be
00000030: 7ee7 9e3e 6df6 0e3f 8a6c babe 7a17 dd3e
00000040: 3cd6 28be feb7 3bbf be2f 43bf c758 1c3f
00000050: 9cab 51be 44ae 19be c0bc fc3d 94a8 32be
00000060: 2699 bc3e a0ec f2bc 7d54 b6be 613c 133f
00000070: 30e9 f1be e854 dfbd 4902 013f d307 3c3f
00000080: 0e49 8a3e 3bd8 a0be c83a 31bf fa98 cb3e
00000090: d06b 5cbd 39b1 233f 2e12 c7be 00e8 bfbd
000000a0: 52a9 9b3e 8799 21bf f431 0e3e de17 05bf
000000b0: 763c ff3e b2c6 df3e 7c7e 4f3e 37a9 41bf
000000c0: ec05 7c3e 741a edbe 3a20 05bf 4814 573e
000000d0: a65d b93e 5f33 413f 6959 303f 6e73 d73e
000000e0: 6b50 133f 20ab d9be 3333 103f 993e 233f
000000f0: 00be f8ba 4678 9d3e 1f2c 323f aeaf 93be
-0.29342806 -0.33678257 -0.74756145 -0.15063304 -0.51880693 0.73776096 0.5263428 0.45084196
0.6627963 0.50880486 -0.77183235 -0.19381785 0.3103599 0.55844766 -0.36410934 0.43181974
-0.16487974 -0.73327625 -0.76244724 0.61072963 -0.2047562 -0.15007883 0.12340689 -0.1744712
0.36835593 -0.029653847 -0.35611334 0.57514006 -0.4724822 -0.109048665 0.5039411 0.7344944
0.2700886 -0.3141497 -0.6923032 0.3976515 -0.053813756 0.63942295 -0.38881058 -0.09370422
0.3040262 -0.6312489 0.13886243 -0.51989543 0.49850816 0.4370628 0.20263094 -0.75648826
0.24611634 -0.46309245 -0.520023 0.2100383 0.3620426 0.7546901 0.6888643 0.42080253
0.57544583 -0.4251337 0.56328124 0.6376739 -0.0018977523 0.30755824 0.69598573 -0.2884497

gatencoder.gat_net.layer_stack.0.bias f4 [16]
00000000: 0000 0000 0000 0000 0000 0000 0000 0000
00000010: 0000 0000 0000 0000 0000 0000 0000 0000
00000020: 0000 0000 0000 0000 0000 0000 0000 0000
00000030: 0000 0000 0000 0000 0000 0000 0000 0000
0.0 0.0 0.0 0.0 0.0 0.0 0.0 0.0
0.0 0.0 0.0 0.0 0.0 0.0 0.0 0.0

gatencoder.gat_net.layer_stack.1.w f4 [1, 64, 32]
00000000: 08ba 51bd bdbe 80bd 6632 87bd 0046 2b3a
00000010: 9494 01bd 06d1 523d 70c2 acbc 99c1 873d
00000020: 523f 363d 656d 883d 020e 753d e04b eebb
00000030: e078 fd3c a081 413c d7e3 8a3d 6238 f6bc
00000040: a904 91bd a47a cb3c 8f1f 8bbd 30ee 58bc
00000050: d751 88bd 7234 5fbd 1841 39bd eb32 853d
00000060: 082e 2b3c 6a45 30bd 803b 4ebc 1c60 ecbc
00000070: 0a25 ccbc 621a 92bd de32 6f3d 8a26 91bc
00000080: 9ac8 6b3d 14cd b83c 8cd7 033d e012 06bd
00000090: ee6b 0ebd 284d 973c a65f 3a3d 0b9f 31bd
000000a0: cc59 81bd a0c0 69bd 3eea 3f3d 0061 d53a
000000b0: 00fc d838 2ece 2fbd 92a7 64bd e28f 6a3d
000000c0: 22e4 81bc 1a0e 6abd bbc1 863d 90aa 37bc
000000d0: 6c98 873c d64d 2d3d 682b 34bc 5e42 d0bc
000000e0: 8684 663d 9aa4 43bd 88cd 63bc 0eba 13bd
000000f0: 4f15 983d 208e 67bb 2c66 30bd faad 75bd
00000100: b327 883d a42f 04bd da64 fbbc 6bac 8a3d
00000110: c2aa 693d 600f 793b 0287 063d f2e2 93bd
00000120: f6f8 403d 6b26 843d ece1 c73c 808e 3abc
00000130: a0f1 fe3b 30b6 813c 58f9 41bc b999 0abd
00000140: 6eb1 83bc 189d aa3c c42e b43c 27ce 7dbd
00000150: 005a 933b 2cbc ca3c 6044 4abd ae46 333d
00000160: 6636 5c3d 6cb0 ea3c 0058 f4bc 975a 55bd
00000170: fe78 68bd ba8e 173d 629b 743d 8279 6b3d
00000180: 07c5 8b3d 2614 a5bc 3cad aa3c 0a39 04bd
00000190: 80b5 af3a affc 833d 803e b63c fe2c 773d
000001a0: 90fe abbb 14df 0e3d 22d5 21bd c8b6 1ebd
000001b0: 5c4e ba3c 80a5 d13a e0db f13c 0043 8bbd
000001c0: d06f 4b3c ad28 843d a876 423c 16cc 213d
000001d0: a656 473d f8bf 06bd 0000 6836 293e 69bd
000001e0: 5404 9abd 8877 d3bc 0abf 6cbd 180c 30bc
000001f0: ead9 223d 5869 523c a3e7 24bd 40d9 173d
00000200: fe4d 543d 3391 4bbd 73d9 823d 1b2d 6fbd
00000210: faf9 5abd 5178 9bbd a199 67bd 5f7e 97bd
00000220: be59 003d 3080 ebbb cab4 6a3d 1418 54bd
00000230: 0097 913a 916f 903d 6cc9 62bc bc72 9f3c
00000240: de41 123d d86e 3b3d 9007 c9bb 8096 123c
00000250: 504c 7fbd 8c73 88bd ee11 39bd c956 963d
00000260: 40f0 78bb bbd6 823d c2ce 58bd 8061 d23b
00000270: dadf 793d aa61 49bd f762 933d 2882 633c
00000280: 1cc5 15bd 6a4e 7c3d ba3f 47bd 8038 7abb
00000290: b6fe 5e3d ddc6 853d de78 023d 6099 9e3c
000002a0: 5854 d8bc ad91 8e3d 681f 74bc 4c61 71bd
000002b0: a696 a9bc e484 043d fe19 663d dad3 683d
000002c0: 8091 f2bb 6e9e 063d b3e7 8e3d 00ec 16b9
000002d0: 2a67 93bd 2ccb 38bd b272 4dbd 04a8 c33c
000002e0: 701b 19bc 5271 403d 92e5 723d 14cd 2a3d
000002f0: a6e0 6c3d c08b 58bd 806f 3dbc 4d08 8b3d
00000300: 80a5 a03a 80c1 a03c 2877 023d 80ff 693a
00000310: 1934 38bd 720d 5e3d 0580 92bd c415 423d
00000320: 8a4a 5b3d bf15 813d d8cd 1abc 8fb8 893d
00000330: df9b 983d cc9e 73bc fa1a 4c3d ac15 93bc
00000340: 209a e53c c81a f2bc 00e4 9fbb fc1f 64bd
00000350: f46f d33c ac9b 52bd 7086 7ebd a87d 0cbd
00000360: 5447 ccbc a8f6 39bc aa9f fabc e669 713d
00000370: b63a edbc b672 703d 8f26 2dbd 2aa9 80bd
00000380: 6cf6 87bc f0c4 eb3b 6fdf 833d 70a5 003d
00000390: 1762 14bd d000 473c 9a74 673d 80b8 e13c
000003a0: 0093 fcb9 6048 1f3d e892 1c3c 31c5 8d3d
000003b0: 66ec 60bd 8e7a 6abd 3f56 963d a862 2c3d
000003c0: 72d0 7c3d e087 47bc 60ac 0dbc 5efb 96bd
000003d0: 8051 0abb eb10 7dbd bc0b 8a3c 6acf 363d
000003e0: f29d 9fbc d48b aebc f017 45bc 6a50 453d
000003f0: 3275 8ebd 1a29 c9bc 492e 933d 8817 0f3d
-0.051202804 -0.062863804 -0.066014096 0.0006533563 -0.031635836 0.05146887 -0.021088809 0.06628723
0.04449398 0.0666149 0.059827812 -0.0072722286 0.030941427 0.01181069 0.06781738 -0.030056182
-0.07080967 0.024838753 -0.06793129 -0.013240382 -0.06656235 -0.054493375 -0.045228094 0.065038525
0.010447986 -0.04303495 -0.012587428 -0.028854422 -0.024920005 -0.07133938 0.05839812 -0.017718572
0.057564355 0.022558726 0.032187983 -0.032732844 -0.0347709 0.018469408 0.045501374 -0.043364566
-0.063159555 -0.057068467 0.04685425 0.0016279519 0.00010346621 -0.042921238 -0.05582387 0.057266124
-0.015855853 -0.057142355 0.0657992 -0.011210099 0.016552173 0.04231056 -0.010996677 -0.025422271
0.056278728 -0.0477644 -0.013903983 -0.036066107 0.07425939 -0.0035332516 -0.04306619 -0.05998037
0.06648197 -0.032271996 -0.030687738 0.06771167 0.057047613 0.003800355 0.032843597 -0.07221021
0.047112428 0.0645264 0.02439972 -0.011386514 0.007780269 0.015833944 -0.011839233 -0.033838008
-0.016075816 0.020826861 0.021994956 -0.06196418 0.004496813 0.02474793 -0.049381614 0.043768577
0.053762816 0.028648578 -0.029827118 -0.052088346 -0.056756012 0.03700135 0.059718497 0.057488926
0.06824689 -0.02015121 0.020834558 -0.03228096 0.0013405532 0.0644468 0.0222466 0.060345642
-0.005248852 0.034880713 -0.0395099 -0.038748533 0.022742443 0.0015994757 0.02952379 -0.067998886
0.012416795 0.06453071 0.01186911 0.039501272 0.04866662 -0.03289792 3.4570694e-06 -0.056944046
-0.07520357 -0.025813833 -0.057799377 -0.010745071 0.0397586 0.012842499 -0.04025997 0.03707242
0.05183219 -0.04969902 0.063891314 -0.058392625 -0.053461052 -0.07591308 -0.056542996 -0.0739715
0.031335585 -0.007186912 0.05730132 -0.051780775 0.0011107624 0.070525296 -0.013841968 0.01946389
0.035707347 0.045760006 -0.0061349347 0.008947015 -0.062328637 -0.06662664 -0.045183115 0.07340772
-0.0037984997 0.06388613 -0.052931555 0.0064203143 0.061004497 -0.049165405 0.071966104 0.013886012
-0.03656493 0.06159822 -0.04864476 -0.003818065 0.05444213 0.06532071 0.03185355 0.019360244
-0.026407406 0.06961379 -0.014900066 -0.05893068 -0.020701718 0.032353297 0.05617713 0.056842662
-0.007402599 0.032865934 0.06977787 -0.00014393032 -0.07197411 -0.045115635 -0.05015821 0.023883827
-0.0093449205 0.04698307 0.059300967 0.041699484 0.05783143 -0.05286765 -0.011562228 0.067886926
0.0012256354 0.019623518 0.031851918 0.0008926317 -0.04497156 0.05421204 -0.07153324 0.04738404
0.053537883 0.06302976 -0.009448491 0.06724655 0.07451605 -0.014869403 0.049830414 -0.01795467
0.028027594 -0.029553786 -0.0048794746 -0.055694565 0.02581022 -0.05141799 -0.06213993 -0.034299523
-0.024936356 -0.011350311 -0.030593712 0.058938883 -0.02895866 0.058703147 -0.0422731 -0.062822655
-0.016596995 0.0071951076 0.06439101 0.031407773 -0.03622636 0.01214619 0.056507684 0.027553797
-0.0004817471 0.03888738 0.00955651 0.06922377 -0.054912947 -0.057245784 0.07340669 0.042086273
0.061722226 -0.012178391 -0.008647054 -0.07372163 -0.0021105707 -0.061783712 0.016851299 0.0446314
-0.019484494 -0.02130691 -0.012029633 0.048172392 -0.06955947 -0.024555732 0.071865626 0.03493455

gatencoder.gat_net.layer_stack.1.a_src f4 [1, 32, 1]
00000000: 7260 193f c099 d8bc 52af 52be 6cdd 033e
00000010: 0439 df3e 08d7 123e e097 b03c 883d 92bd
00000020: 3d2f 99be 50ba 33be 26dc fabe 7a5c 17be
00000030: 28de 3abe bec9 b33e 30c1 3cbd 5832 133e
00000040: e041 0c3f 78b3 69be 40d9 613d b40c e8be
00000050: 1836 9a3d 487b b43e 10ec 24bd fcd7 e13e
00000060: f6e1 c7be 6047 66be 7d3c 16bf 38c5 833d
00000070: b67e c1be f842 f93d 5c74 b03e fc0c 913e
0.5991279 -0.026440501 -0.20574692 0.12877434 0.43598187 0.1433984 0.021556795 -0.071406424
-0.29918852 -0.17551541 -0.48996085 -0.14781371 -0.18248808 0.35114855 -0.046082675 0.14374673
0.5478802 -0.22822368 0.055138826 -0.45322192 0.07529849 0.35250306 -0.04026419 0.44110096
-0.39039582 -0.22488165 -0.5868605 0.06434101 -0.37791985 0.121709764 0.34463775 0.2833022

gatencoder.gat_net.layer_stack.1.a_dst f4 [1, 32, 1]
00000000: 8043 95bd e007 fa3e 85c0 0dbf 32cf c0be
00000010: f8a2 de3e 7c91 163f 5c6e 033e c449 843e
00000020: 00f8 8fbc 3064 39bd 0011 583c 80fb 37bd
00000030: d34a e7be 00d8 173b 81d7 ddbe cbc6 8abe
00000040: a430 d9be dc59 0bbe f8f9 f2be 88cb 19be
00000050: 061b 7ebe 5022 6b3e 289a a93d b0d5 ed3d
00000060: 323f 0d3f 3eb7 0e3f 4cdd e7bd 3af7 9b3e
00000070: aca4 ef3e fa59 babe a859 ee3e 78ec 18bf
-0.07288265 0.48834133 -0.55371886 -0.37658077 0.4348371 0.5881574 0.12835068 0.2583753
-0.01757431 -0.045261562 0.013187647 -0.044917583 -0.45174274 0.0023169518 -0.4332848 -0.27104792
-0.42419922 -0.13608497 -0.47456336 -0.15019047 -0.24814996 0.22962308 0.08281356 0.11613023
0.55174553 0.55748355 -0.11321506 0.30462056 0.46805322 -0.36396772 0.46552777 -0.5973582

gatencoder.gat_net.layer_stack.1.bias f4 [32]
00000000: 0000 0000 0000 0000 0000 0000 0000 0000
00000010: 0000 0000 0000 0000 0000 0000 0000 0000
00000020: 0000 0000 0000 0000 0000 0000 0000 0000
00000030: 0000 0000 0000 0000 0000 0000 0000 0000
00000040: 0000 0000 0000 0000 0000 0000 0000 0000
00000050: 0000 0000 0000 0000 0000 0000 0000 0000
00000060: 0000 0000 0000 0000 0000 0000 0000 0000
00000070: 0000 0000 0000 0000 0000 0000 0000 0000
0.0 0.0 0.0 0.0 0.0 0.0 0.0 0.0
0.0 0.0 0.0 0.0 0.0 0.0 0.0 0.0
0.0 0.0 0.0 0.0 0.0 0.0 0.0 0.0
0.0 0.0 0.0 0.0 0.0 0.0 0.0 0.0

traj_lstm_model.weight_ih f4 [128, 2]
00000000: e185 82bf ed3b 0bbf 0e7e 003f 3bec 823e
00000010: f741 64bf 24fd 91bf 13f2 4e3e 91df f63d
00000020: 6220 553f 936d 1a3f 10b0 a1bf d423 21bf
00000030: d61e 85be df2d 693f 33cb e83d d929 a0be
00000040: 7cac 0bbf d796 763f 964e b03d deed 953e
00000050: 7f9d 4ebf cff0 33bf 310c 1cbf 4fca 20bf
00000060: 3220 96bd 72ec 8fbd 2e90 863e c1c4 81be
00000070: e0fc 643f 1b24 47bf 89d4 833f f078 51bf
00000080: cd83 513e 1b51 c9bb 9fc3 c43d d088 c43b
00000090: f083 363f 731a 16bf 9557 a43c 15d4 f93e
000000a0: f54f 66bf 183e 3dbf 53be a9be 100a 153f
000000b0: 29a3 ab3e 50c1 afbd c2f7 48bc 707c cabd
000000c0: 6076 80be cd5d 33be 27d5 553f 57dd 52bf
000000d0: 3885 a03e 46d7 463e 5ae5 153f 3fbb 26bf
000000e0: c76d c93e e30c 08be 75b3 8a3f 008b 40bf
000000f0: c4eb 5f3f 10ad 96bf abac 5b3f 73f0 8a3f
00000100: efda 40bf 8a12 fbbe 0f6f 273f 05aa 333f
00000110: 1468 18be 65a3 58bf 535e 803e f915 233f
00000120: 325a 543f dd45 383f 1eb9 acbf a442 a3be
00000130: 1c1c 763e fb36 e8bc a61f 483e e384 05bf
00000140: 9cf0 63be 0e9b 4f3f 5979 8f3e 037e cabe
00000150: ad3c d3be 29a8 1bbf 1abf 13bf a374 0fbf
00000160: 909f a63e c7bd 13be b833 dc3e d8b2 94be
00000170: 99b0 193f 992f d4be fc39 2d3f 4215 41bf
00000180: 2cc1 ea3e 6041 66bf 6c2a 933e 1b34 443f
00000190: 683a 1f3f 234e f9be 6d46 91be 0b43 8d3f
000001a0: 1378 30bf 0e72 3bbf 2935 eabe 27be a33f
000001b0: 77ec e63e 64f1 e23e d941 a2be a081 07be
000001c0: a551 58bf e686 a4be 39d0 023f 7162 e8be
000001d0: 00f9 103f 4eb5 3e3f 7f27 dc3e ee3d dabe
000001e0: 9882 c63e f934 193e 4f69 9a3f 7233 7cbf
000001f0: 9733 983e e197 ddbe 15c2 3f3f b38c b83f
00000200: 0e51 cbbe 1dea 3ebe 3e1a 2ebf bd0a f9be
00000210: 5c2c 023e e6ed 623f 59f5 043f 1312 663f
00000220: 301d d83e 699d 2d3f e3b6 6b3f f767 bf3e
00000230: 8416 c13e a172 dcbe 1776 0d3f 7bd6 42bf
00000240: 4c6d c9be d961 4b3f 5e76 4f3f 5097 3abf
00000250: e0c0 1d3f dce9 133e 5723 63be d6ac 22bf
00000260: ac63 2d3f 75d4 02bf 81d3 353f efb6 02bf
00000270: 6511 bb3e cee7 0bbf 8bb5 f43e 9fce 18bf
00000280: 1fc8 1abf 94bf 753f fcd0 0fbf 92e8 22bf
00000290: c2d3 073f fb7e c8be 6d1f 0a3f dc35 9fbf
000002a0: 1fd8 13bf 62e3 8bbe 7026 1c3f 5a6f 5fbf
000002b0: 0e54 263f c8af d73b 11af 2ebf 3c75 24bf
000002c0: eb14 1c3f 5222 3b3f 506f c8be 002d 8c3e
000002d0: 1f52 223f 6acb 213f 0be3 d93e bab6 1fbf
000002e0: e1fc 28bf 0e9a f7bd abac 34bf 6ea3 683f
000002f0: 3772 eabe 6dc3 0f3f 328d 003f 3d07 1e3f
00000300: 77aa bcbf babc 3bbf e77d 2f3f cad6 db3e
00000310: 788a 9ebf e164 dabf 1eca 353e 8735 693e
00000320: b78c 933f f688 983f ec68 c2bf 125c fabe
00000330: 1e1d 63be f7a2 b63f 1cd5 913e 2547 4dbe
00000340: 01af 49bf 9fc7 a23f 3031 f93b 4ce7 043e
00000350: a830 89bf fa07 83bf 9bfe 86bf e6a4 36bf
00000360: 430a 023e 05fc 4abe 09b0 623e f8ce a33c
00000370: 52e4 a53f 501a 99bf 7d2a 9e3f e036 70bf
00000380: d447 e33e 23aa 96bd 1093 ce3d ce45 b83e
00000390: 8f6f 8d3f b542 60bf dc2c 82bd 61a8 653f
000003a0: 53e7 72bf d329 83bf 31eb d0be fc79 693f
000003b0: d8d6 c63e 7e37 223e dd98 86bc 7462 ac3d
000003c0: 174c a7be bc33 80be 23ce 553f d713 30bf
000003d0: 80db c63e b7dd a63e 42c2 253f cb2d 37bf
000003e0: 1546 373f 9cb1 153d f9ea 673f c60c 60bf
000003f0: c9d6 963f 5d7a e0bf 4a88 963f c565 e03f
-1.0197107 -0.54388314 0.50192344 0.25570855 -0.89163154 -1.1405377 0.20209531 0.12054361
0.8325254 0.60323447 -1.2631855 -0.62945294 -0.26000088 0.9108562 0.11366882 -0.31281927
-0.54560065 0.96323913 0.08608739 0.2928304 -0.8070907 -0.7028932 -0.609561 -0.628087
-0.073303595 -0.0702752 0.26281875 -0.25345424 0.89448357 -0.7778947 1.0299236 -0.8182516
0.20460434 -0.0061437017 0.09607624 0.0059977546 0.7129507 -0.5863411 0.020061294 0.48794618
-0.89965755 -0.7392287 -0.33153018 0.5821848 0.3352292 -0.08581793 -0.012266101 -0.09887016
-0.25090313 -0.17516251 0.8352837 -0.8236899 0.31351638 0.19418058 0.5855309 -0.65129465
0.39341566 -0.13286166 1.0836016 -0.752121 0.87469125 -1.1771564 0.85810345 1.0854629
-0.75334066 -0.49037582 0.65403837 0.70181304 -0.14883453 -0.8462432 0.25071964 0.637054
0.8295013 0.719816 -1.3493993 -0.3188678 0.2403416 -0.02834653 0.19543323 -0.52155894
-0.22259754 0.8109597 0.28022268 -0.39549264 -0.4125723 -0.6080347 -0.5771347 -0.5603735
0.32543612 -0.14427863 0.43008208 -0.29042697 0.6003509 -0.41442564 0.676666 -0.7542306
0.45850503 -0.89943504 0.28743303 0.76642007 0.62198496 -0.48692426 -0.28374043 1.1036085
-0.6893322 -0.7322091 -0.45743683 1.2792405 0.45102283 0.4432479 -0.31690863 -0.13233042
-0.8449958 -0.3213417 0.5109897 -0.45387605 0.56629944 0.744954 0.42998883 -0.42625374
0.3877151 0.14961614 1.2063388 -0.98516 0.2972686 -0.43279937 0.7490552 1.4417938
-0.39710277 -0.18643995 -0.6800879 -0.48641005 0.12712234 0.88644254 0.5193687 0.8987133
0.42209768 0.67818314 0.9207594 0.37384006 0.3771249 -0.43056205 0.55258316 -0.7610852
-0.393412 0.7944618 0.8103999 -0.72887135 0.6162243 0.14444679 -0.2218145 -0.63544977
0.6773021 -0.51105434 0.71025854 -0.51060385 0.36536708 -0.5465058 0.47794756 -0.5969028
-0.6046161 0.9599545 -0.5617826 -0.63636124 0.5305749 -0.39159378 0.539542 -1.2438312
-0.5775165 -0.27321917 0.6099615 -0.87279284 0.6497201 0.006582234 -0.6823588 -0.64241385
0.6096942 0.73099244 -0.39147425 0.27378082 0.63406557 0.6320101 0.42556033 -0.62388194
-0.6601086 -0.120899305 -0.7057597 0.90874374 -0.45790264 0.5615757 0.50215447 0.61729795
-1.4739522 -0.7333485 0.68551487 0.4293731 -1.2386007 -1.7062036 0.17752883 0.22774325
1.1527318 1.1916797 -1.518827 -0.4889837 -0.22179076 1.4268483 0.28482902 -0.2004667
-0.7878266 1.271717 0.0076047406 0.12978858 -1.0717974 -1.0236809 -1.054645 -0.71345365
0.12699227 -0.198227 0.22137465 0.019996151 1.2960303 -1.1961155 1.2356716 -0.9383373
0.44390738 -0.0735667 0.10086644 0.35990757 1.104967 -0.87601787 -0.063562125 0.8971005
-0.9488422 -1.0247139 -0.40804437 0.9120176 0.38835788 0.15841481 -0.016430313 0.08417216
-0.3267524 -0.2503947 0.83517665 -0.68780273 0.3883934 0.3259103 0.6474954 -0.7155425
0.7159131 0.036546335 0.90592915 -0.8751949 1.1784297 -1.7537342 1.1760342 1.7531058

traj_lstm_model.weight_hh f4 [128, 32]
00000000: 544b aa3d 7c93 f6bd f186 c93d 2ec4 643e
00000010: f2d4 6e3e 5773 7ebe 2f92 883e 0b15 a03e
00000020: 1bb5 813e 80b2 f43d d036 afbe a397 473e
00000030: 5bc0 7f3e 7d0f fcbc 917d 9b3e e05c f13e
00000040: cf9d 13be 6b08 b53d 35a7 f03e 56eb afbd
00000050: e76c 3f3e 0f34 61be 660c 873d 3491 813e
00000060: 0d7d 8dbe fd38 8dbe c6c5 ddbd c506 333e
00000070: 8850 243d ec5d 4ebe ecb3 62be d255 1e3e
00000080: f0d2 c1bc a020 9cbc e89f be3d b4e5 8fbd
00000090: 2fe3 723e 7f19 7fbe c82f 943e 5565 873d
000000a0: f6d9 953e 9906 3e3e 5ab9 92be eb5d 843e
000000b0: 8215 823e 9c89 51bd fc62 8e3d 6d43 c03d
000000c0: 8ba3 883d c380 da3d d53e 613e 5ebe 14bd
000000d0: 37d0 7a3e 718c 9dbd af6c 21bc 43b5 763e
000000e0: ab08 38bd fe7d 95be 5116 fbbc 0326 253e
000000f0: 4c21 243e a836 e2bd 02ed 573d ec41 8bbd
00000100: 7d38 363d 1c81 c53e 63c2 55bd 125f 4cbd
00000110: fca0 e63c a5a9 46bd 694e 83be 348f f2b9
00000120: 543a d6bd cda3 a7be 80f2 4fbd 035f 9abe
00000130: 36de 5dbe c007 8fbe 34ea 8b3e 0b1e bfbd
00000140: 1bf1 523e e648 f63e 96c7 92be 3e94 e93e
00000150: 6bdf c3bd 1f78 69be 6058 1abe dbf1 503e
00000160: 2a4f f8be 3c5d 4dbb 3e73 993d f721 fcbd
00000170: 190d 623e 0c71 68be 3830 333e 09cf 0fbd
00000180: b30a af3e 27f6 89be cc43 cbbe 6978 66be
00000190: f8ef d23e e71e efbe 5d5d a93d 378d 033e
000001a0: d644 133f c062 96be af19 fdbe b5c2 1b3f
000001b0: 5442 52bc f80b fa3d c188 223e 6c7e b33d
000001c0: 9f9a 1b3d 4655 423e f5c0 6f3e f2e2 62be
000001d0: 1e33 963e 0490 0abe 49d7 23be 3e20 3d3e
000001e0: c7b7 1abe db6e 9dbe ef55 ee3d 2b20 953e
000001f0: 50ef 08be ebcf 36be e7cc 95bd 6c79 d33e
00000200: e497 0f3e 9a09 5dbd 7a00 5fbc cdc8 843d
00000210: 7615 153e 2b15 843d 031f cf3c 132f b1bc
00000220: e1bc a7bd ea6a 61be 1cd3 9ebc eec1 3dbc
00000230: 9ee3 51be 99c9 98bd a69f 963d f352 bc3c
00000240: 79a1 53bd bd2c 2dbe 6840 493c 9b0d 143c
00000250: a04d d9bd 55dc febc 0ab1 d53d aa73 b9bd
00000260: a339 ab3d 7309 7b3c 1980 e83d db4c 1ebd
00000270: c6bd 13be ff86 043d 46e8 42be a454 233d
00000280: 04d8 a1bd f7e2 b53d f381 513d 594a c1be
00000290: 7a9f a4be 594f c83e 8485 f9bd e89d c5be
000002a0: e1d1 a1be 3e85 c2bd 2772 8d3e 5aa8 0cbe
000002b0: 592d 57be ddee 1d3e 6901 b1be 9d1d 1bbf
000002c0: 9568 40bd 8081 75be 2506 12bf 9ba0 ea3c
000002d0: b558 a3be e086 a33e 927b ac3d 7a31 a1be
000002e0: ac2d f73e adeb 9d3e 8c92 703e 6446 39be
000002f0: c0b3 fabd 28bb 9c3e 0365 a93d e557 58be
00000300: be2d 403e 10d0 703e 6c72 0dbe e185 f5bd
00000310: 9ef7 6c3d 88e1 0ebe 4590 5bbe 1b02 65be
00000320: 0b31 ad3e 2900 e3be e19f d73b 1023 be3b
00000330: 2c80 ccbe 0909 90be fc5e 5bbd 0b73 adbd
00000340: 37ee 873e 3f6f 913d c781 25be 40bf b3bc
00000350: 230a bcbc e3f9 eabd a68e 18be 6ec2 d739
00000360: 84fe 98bd 5244 1e3d cac3 383c c6d1 d6bb
00000370: 4778 ef3c 8ada 0abc 4d47 5a3e 2e02 2d3c
00000380: b12c ad3e 55b9 423d 4f84 9bbe df15 dfbd
00000390: c303 843e 0a2e b4be 0f72 aebe d4d7 62bd
000003a0: bcaa 273e 965e 63be 1451 dc3d caaa 483e
000003b0: 1ae7 1cbe fa73 e3bd ec00 b43e a4ce 683e
000003c0: 195d 87be 1c25 c6be f6a9 893e 0321 8dbe
000003d0: 0112 133e 1cf2 06be 0fd6 573e ab00 103d
000003e0: fbdf f7bd 2aa8 8ebe 7f24 453e 65f8 273e
000003f0: 00d3 e2bd 342a 24be 6ebc b0be 4b76 1f3e
0.08315149 -0.12039849 0.09840191 0.22340462 0.2332342 -0.24848686 0.2667403 0.31266055
0.25333485 0.11948109 -0.34221506 0.19491439 0.24975722 -0.030769104 0.30369237 0.4714117
-0.14415668 0.08839496 0.4700257 -0.08589809 0.18693887 -0.21992515 0.06594162 0.25306094
-0.2763447 -0.2758254 -0.10828738 0.17483051 0.040115863 -0.20153016 -0.22138947 0.15462425
-0.023660153 -0.019058526 0.093078434 -0.07026234 0.23719476 -0.2491207 0.28942704 0.066111244
0.29267853 0.18557204 -0.28657037 0.25852904 0.25407034 -0.051156625 0.069524735 0.093878604
0.06671818 0.106690906 0.21996625 -0.03631436 0.2449349 -0.07692803 -0.009852572 0.24092583
-0.04493014 -0.29197687 -0.03065029 0.16127782 0.16028327 -0.11045581 0.052716263 -0.06799683
0.044487465 0.38575065 -0.052187335 -0.049895354 0.028152935 -0.04850163 -0.2564576 -0.00046264532
-0.10460344 -0.32742158 -0.050768375 -0.30150613 -0.21666798 -0.279356 0.2732712 -0.09331902
0.20599787 0.48102492 -0.28667897 0.45620912 -0.09564098 -0.22799729 -0.15072775 0.2040476
-0.48497897 -0.003133609 0.07492684 -0.12311166 0.22075309 -0.22699374 0.17498863 -0.035109553
0.3418785 -0.26945612 -0.39700162 -0.2250687 0.41198707 -0.46703264 0.08269761 0.12846838
0.5752691 -0.29372215 -0.49433658 0.60843974 -0.012833197 0.12209314 0.1587248 0.087643474
0.037989255 0.18977842 0.23413451 -0.22156885 0.29335874 -0.135315 -0.16000094 0.1846933
-0.15109168 -0.3074864 0.11637484 0.29126105 -0.1337254 -0.17852752 -0.07314473 0.41303575
0.14022785 -0.053964235 -0.013610953 0.06483612 0.14558968 0.0644935 0.025283342 -0.021628892
-0.08190323 -0.2201344 -0.019387774 -0.011581881 -0.20496985 -0.07460327 0.07354669 0.022988772
-0.051667664 -0.16911598 0.012283422 0.009036447 -0.10610509 -0.031110922 0.10434158 -0.09055264
0.08360603 0.015322077 0.11352558 -0.038647514 -0.14427862 0.032355305 -0.19033918 0.03987564
-0.0790253 0.08881181 0.05114932 -0.37752035 -0.3215292 0.39123037 -0.12183669 -0.38597035
-0.31605437 -0.0949807 0.27626154 -0.13736096 -0.21013393 0.1542315 -0.34571388 -0.6059206
-0.046974737 -0.23975182 -0.57040626 0.028641036 -0.31903616 0.3193884 0.08422007 -0.3148306
0.48277032 0.3084387 0.23493403 -0.18093258 -0.12241316 0.3061154 0.082712196 -0.21127279
0.1876745 0.2351687 -0.1381318 -0.11988426 0.057853334 -0.13953221 -0.21441753 -0.22364084
0.3382648 -0.4433606 0.0065803383 0.0058025196 -0.39941537 -0.28131893 -0.05355738 -0.08469208
0.2654893 0.07101297 -0.16162787 -0.021941781 -0.022954052 -0.11473443 -0.14898166 0.00041152857
-0.0747042 0.038639374 0.0112771485 -0.0065557687 0.029232157 -0.008474955 0.21316262 0.010559602
0.3382316 0.047540028 -0.3037438 -0.108928435 0.2578412 -0.35191375 -0.34071395 -0.05538161
0.16373724 -0.2220405 0.10757652 0.19596401 -0.15322533 -0.11106105 0.35156953 0.22735077
-0.26438215 -0.38700187 0.26887482 -0.27564248 0.14362337 -0.13178295 0.2107775 0.035156887
-0.12103268 -0.27862674 0.19252203 0.16403349 -0.11075401 -0.16031724 -0.3451876 0.15572469

traj_lstm_model.bias_ih f4 [128]
00000000: fe33 8f3e f3d4 c63e aeaa 0e3f 7fc0 383f
00000010: 9641 483e fd70 093f 3d4d 113d 6b91 1b3f
00000020: d19b 4d3e dbfa 3a3f f4af 073e d1d5 993e
00000030: 381f 253f 8727 243f b38b 2d3e 5c38 ef3e
00000040: eff1 293f c004 283f 1103 173f 4974 4c3f
00000050: 7016 aa3e 0260 083f c465 953e c0dd 2d3f
00000060: 9dfc 123f 449e 5dbc bc2d 3d3f d915 233e
00000070: ec57 913e 63f0 083f 358d 1cbe f1d5 943e
00000080: 2230 e8bf a005 dfbf ef7a c6bf 6245 08c0
00000090: 6038 e6bf 8209 c6bf 80c5 d0bf 76ad e2bf
000000a0: a34a c6bf 4d65 c6bf 503e c4bf 28b4 e7bf
000000b0: 881b f5bf a48b ccbf 6543 dcbf 90e6 d5bf
000000c0: d3b3 ffbf aeb4 f9bf 16d3 c5bf 8e3f 0dc0
000000d0: 8810 dabf 3d11 c4bf 1148 8abf 4b5c f5bf
000000e0: 6a0e 05c0 b419 a5bf 31c5 01c0 45c4 97bf
000000f0: 77ef d2bf 7ba6 f4bf 2965 e3bf 9b32 efbf
00000100: 3aba df3e 20a2 2cbe b0f7 54be fdbc 9d3d
00000110: 5b57 873e d940 9cbe a120 8b3d f565 7b3d
00000120: 22ea c33d 52b9 913e 23cc 88be 10dd a03e
00000130: f4f8 333d cd84 3f3e b1e1 b33e 32fa b73e
00000140: 80b3 e6bd 9831 8dbd d54b d73e a37c d13d
00000150: d799 873e 8592 29be 1dce 9a3d 17a2 a93d
00000160: 9f6e c9bd 2f28 b5be d688 04be b372 783e
00000170: 925d 67bd 5750 85be 8df4 4cbd 436e 233e
00000180: c0ec cfbe 9773 20bd cbba f0be 183f 9d3d
00000190: 7010 c6be 942d 17be 351f d6be d2dd 29be
000001a0: cafe fdbe 71a5 723d e616 e8be 5813 a3be
000001b0: bc9a bbbc 285b b2bb d36e d3be 3557 53be
000001c0: 7a90 17be 6809 1c3d c67f c83d bfd8 443e
000001d0: b7b3 b9be c30e 0bbe 7dd6 1dbe 885b 6e3b
000001e0: b541 0e3e 3186 9fbe 804c 143e ad6f d4bd
000001f0: 95e7 d6be 6db6 293e 0d00 46bf 8df7 aebe
0.27969354 0.38834342 0.55729187 0.72168726 0.19556269 0.5368803 0.03547405 0.60768765
0.2007897 0.73039025 0.13250715 0.3004594 0.6450076 0.64122814 0.16947822 0.46722686
0.66384786 0.6563225 0.58989054 0.7986494 0.33220243 0.53271496 0.29179204 0.6791649
0.5741671 -0.013526503 0.7389791 0.15926303 0.28387392 0.534918 -0.15288241 0.29069474
-1.8139689 -1.7423592 -1.5506266 -2.1292348 -1.7985954 -1.5471652 -1.6310272 -1.7709186
-1.5491527 -1.5499665 -1.5331516 -1.8101854 -1.9149027 -1.5980115 -1.7208067 -1.6710987
-1.9976753 -1.9508264 -1.5455043 -2.207004 -1.7036295 -1.5317761 -1.0803243 -1.916879
-2.0790048 -1.2898469 -2.0276606 -1.1856772 -1.6479329 -1.9113306 -1.7765247 -1.8687319
0.43696767 -0.16858721 -0.2079761 0.07702062 0.26433834 -0.30518225 0.06793333 0.06137653
0.09566142 0.284617 -0.26718244 0.31418657 0.043938592 0.18703003 0.35133126 0.3593307
-0.11264706 -0.06894225 0.42050043 0.10228851 0.26484558 -0.16559799 0.07558844 0.08282869
-0.098355524 -0.3538222 -0.12942824 0.24262504 -0.05648572 -0.26037857 -0.05003791 0.1596003
-0.40610313 -0.039172735 -0.47017512 0.0767805 -0.38684416 -0.1476348 -0.41820684 -0.16588524
-0.4960845 0.05923981 -0.4532997 -0.31850696 -0.022900932 -0.0054429956 -0.4129549 -0.20638736
-0.14801207 0.038094908 0.09789996 0.19223307 -0.36269924 -0.1357985 -0.15413852 0.0036370475
0.13892253 -0.31157067 0.14482307 -0.10372863 -0.41973558 0.16573496 -0.7734383 -0.3417324

traj_lstm_model.bias_hh f4 [128]
00000000: 3c3d ae3e bfba 0e3f f6b6 6f3e c84f 483f
00000010: 86f9 853e 7a29 823e 7ac9 6c3d 0600 1b3f
00000020: b336 7a3e f78f 333f 77c5 a23e 40f0 573e
00000030: ff1b 083f c14b ed3e abb7 fa3d 6d01 9d3e
00000040: d7a7 193f 39de f13e 96db f63e a21d 143f
00000050: db32 393e 316a 043f 40ae f23e 06f7 1d3f
00000060: c3d4 243f eb85 5c3d 8ef6 0d3f cd2a c43e
00000070: d8c4 9c3e 615b 083f 9a35 edbc 8bd2 a63e
00000080: d725 debf b98d dbbf 924b b2bf 42e4 f0bf
00000090: fcb4 d3bf 03fb e8bf adc6 e6bf e9f6 dfbf
000000a0: bceb ccbf 2653 e6bf 1c63 bfbf ed78 d3bf
000000b0: da6a f0bf ac47 cdbf aa34 ccbf 7b25 cdbf
000000c0: 8826 00c0 9326 eabf 1fbf b0bf 3c7d 01c0
000000d0: acdb cfbf ee5f b8bf e42d 99bf f281 e0bf
000000e0: 98ff e7bf 64ad b5bf f873 edbf 9bea 8abf
000000f0: ac8a d1bf f556 f4bf b6eb e5bf b36b e3bf
00000100: bbcb cb3e f7bb 89be a9bc 363c 9a15 523d
00000110: 742d 9e3e f83e 39be bab7 473b 4000 fd3d
00000120: ed12 5e3e a555 1cbc 3a86 4fbe 12fc 8d3e
00000130: 0cfd 513e f0d1 c7bd 29ad 8b3e 65b7 933e
00000140: f24e 4dbe 7640 d73d 71ca d93e 2181 48be
00000150: cb0a 3d3e 6436 8bbd cb08 63bd b00d 043d
00000160: 8a9a 17be ba88 afbe d883 ea3d a3a9 743e
00000170: 5249 c5bd 7694 54bc 5e18 aa3c e0d9 223e
00000180: e033 c2be 8aa4 b4bd 8e43 e6be e09f df3d
00000190: b91c debe 9e3a 01be 3fc3 34bf 7089 47be
000001a0: 981b acbe 65f4 39bc 4177 09bf 28ac 05bf
000001b0: 3ee4 ea3d 6138 e8bd 2ab5 d0be 4642 babd
000001c0: 05a2 c4bd 9214 1b3c 8a84 593e 68a3 e3bc
000001d0: 8ddd bcbe 019c b2bd 854f 92be be48 913d
000001e0: 440b 243d 8be6 babe f739 023d e3a4 a1be
000001f0: c566 82be fe12 9b3e d389 52bf adc6 16bf
0.34031093 0.557537 0.23409638 0.78246737 0.26166934 0.2542227 0.05780933 0.6054691
0.24434929 0.7014155 0.3179128 0.21087742 0.5316772 0.46346858 0.12242063 0.3066515
0.6002173 0.47239855 0.48214406 0.57857716 0.18085806 0.51724535 0.47398567 0.6170505
0.6438715 0.05383865 0.5545434 0.38313904 0.3061893 0.53264433 -0.028956223 0.32582507
-1.7355298 -1.7152625 -1.3929312 -1.8819659 -1.6539607 -1.8201603 -1.8029381 -1.7497226
-1.600944 -1.7994125 -1.4952121 -1.6521279 -1.8782609 -1.6037498 -1.5953572 -1.6027063
-2.0023518 -1.8293022 -1.3808326 -2.0232687 -1.6238914 -1.4404275 -1.196713 -1.7539656
-1.8124876 -1.419354 -1.8551016 -1.0852846 -1.6370444 -1.9089037 -1.7962558 -1.7767242
0.39803872 -0.26901218 0.0111533785 0.051290132 0.30894053 -0.18090427 0.00304745 0.12353563
0.21686907 -0.009541904 -0.20266047 0.27731377 0.20506686 -0.09756839 0.27280548 0.28850856
-0.20049646 0.10510342 0.42537263 -0.19580509 0.18461148 -0.067974836 -0.055428308 0.032239616
-0.14805046 -0.34284002 0.114509284 0.23892836 -0.09633125 -0.012974849 0.020763572 0.15903425
-0.37930202 -0.08820446 -0.44973415 0.109191656 -0.4338129 -0.12620017 -0.7061042 -0.19486022
-0.33614802 -0.011349772 -0.5369759 -0.52215815 0.11469315 -0.113388784 -0.40763217 -0.09094672
-0.09601215 0.009465354 0.21241966 -0.02778788 -0.3688778 -0.08721162 -0.28576294 0.070939526
0.040049806 -0.36504015 0.03179356 -0.3157111 -0.25469032 0.30287927 -0.82241553 -0.58896905

graph_lstm_model.weight_ih f4 [128, 32]
00000000: d893 223d 89fe ecbd a49e 223d 8634 06be
00000010: 22d7 2cbe 16cd c13d 189c e43c bbbe 113e
00000020: 5ea3 2fbe cb77 a5bd 7261 b23d 237c a3bd
00000030: 1230 15be e464 5f3d 3f76 2a3e 5047 4abc
00000040: fc26 27be dfb7 073e 7544 253e d64a 03be
00000050: df66 a0bd 5121 093e d825 913d a13d 253e
00000060: a3ac dabd 8923 03be b1e6 eabd b15a 063e
00000070: 9345 04be 7377 b6bd 1861 13bd 2263 b4bd
00000080: 5290 ec3d 70a0 0bbc 24d5 083d 1c85 06bd
00000090: f504 1f3e f54f 023e 4029 d1bb fc6e 24be
000000a0: f030 093c 86e4 cdbd 42d0 df3d a1d1 143e
000000b0: 66bc 85bd 4fe3 073e 9c50 4abd 6017 813d
000000c0: c8bd ec3c 8f1d 84bd cce2 69bd 0291 c53d
000000d0: 4ab5 b8bd 53b3 2f3e ee76 29be aa01 29be
000000e0: 19d5 dabd 5260 e23d 205e 25be e579 1f3e
000000f0: 68a6 23be 62d0 d73d 5054 11bd 16c8 1cbe
00000100: 861e a73d f844 843d 3ff9 273e b0ef bfbd
00000110: f834 103d 3df4 34be 308f cf3c 1bad a9bd
00000120: e4f2 743d 4ebc c1bd 30ca 25be 8050 52bc
00000130: 30d9 6bbc 17b0 0cbe 1a5b 68bd 5023 b5bc
00000140: 9792 243e d658 df3d 6047 97bd 0062 3d3b
00000150: 80ca ddbc 18ab 26bd 00cc a939 671f 273e
00000160: d0df 363d 2228 1cbe 6047 e93c dfa2 2b3e
00000170: 33cf 8cbd c1bc 11be ed61 303e ae83 2cbe
00000180: dcc2 613d 1eaa e23d ba30 e83d 60fa 0fbe
00000190: d0b6 c1bd 03d9 e0bd b461 f0bd e648 07be
000001a0: 1c5d 5b3d 71aa 17be 86a1 c03d aa61 03be
000001b0: 50f4 22bc 7474 16bd 0cd0 0e3d ccdb 60bd
000001c0: a0c5 76bd 2607 d73d 06ea f5bd 860e 56bd
000001d0: 40a9 bebc ee4c fc3d abb8 333e 105c 09bc
000001e0: bab2 88bd 3bbf cebd d426 293d 985e ddbc
000001f0: 6631 cc3d c086 243b d627 5cbd fa6e f43d
00000200: 805d 06bd 683e 93bc 0003 dcbb 02d6 ad3d
00000210: bb17 19be 9240 9e3d b898 4d3d 33ce 063e
00000220: 62c4 0ebe f6b3 9d3d 96a0 d33d 524c 6cbd
00000230: 3af0 b33d 5a94 b63d 5cd9 3b3d 6c1b 8b3d
00000240: e89f 27bd d0ad 60bc b646 e63d 5806 dc3c
00000250: b363 c4bd bfe5 aebd 8476 9abd 283e e6bd
00000260: 1c6c 43bd 73cf 24be 8810 793d a586 143e
00000270: 6a76 83bd dfe7 2f3e 6081 093c 6674 65bd
00000280: 1eec f9bd 3a0d ae3d e233 bf3d a40b 71bd
00000290: 5f3b cfbd 9c7d 01bd 6c68 3cbd 3e3f 14be
000002a0: 7090 26be 63b6 113e df1c 15be c80e bc3c
000002b0: 82b4 c53d ec93 343d 94e4 41bd c8b6 1e3d
000002c0: 205b 92bc f6b6 973d 27ea 12be db0a 1a3e
000002d0: 922c de3d 5f54 05be c06e d0bb c0fb 693b
000002e0: cd21 1a3e e83b 0dbe 5272 bfbd 08c2 12be
000002f0: df5d 0f3e 4885 cabc b9a4 023e 587c 1a3d
00000300: 40fc 39bc 5784 193e 9c8c 273d 964d e03d
00000310: 9053 48bd 8aec ccbd 20dc 37bc c06a e3bc
00000320: f081 8cbc b0b7 593c cae7 8fbd d9d8 2c3e
00000330: a30a 083e 40ca d5bc 00d7 d93c 7853 923c
00000340: b0dd 02be 2aa2 2dbe ce8a e93d 32d8 1abe
00000350: aa65 e6bd d676 e8bd f952 e6bd 8044 b83b
00000360: c9b3 9dbd 28b4 b7bd b629 5cbd 3dff 143e
00000370: 0dc5 2e3e 6c09 363d 66b1 e43d 1279 d53d
00000380: 2c71 2ebd 16e0 ca3d 4817 0abe 76bb b03d
00000390: c9af 113e e856 ddbc aa3b 883d c1a2 c6bd
000003a0: d82f 143d 2b3c c8bd 80e2 ed3b 2e05 b33d
000003b0: 08bd ea3c f2c1 79bd 58b1 b4bd 4a64 0dbe
000003c0: ef1c 033e 9642 c2bd bb98 053e 0000 cfbb
000003d0: 598b febd 1b52 133e 2f38 d0bd be1f 0dbe
000003e0: e921 dabd 58e4 8e3d 8de3 0cbe 8be1 043e
000003f0: c0c0 7d3d f78e 333e 7855 853c 3a38 f0bd
0.039691776 -0.11571986 0.039702073 -0.13105974 -0.16878942 0.09462945 0.027906463 0.14232914
-0.17152163 -0.08079489 0.087099925 -0.079826616 -0.14569119 0.054539576 0.1664667 -0.012346104
-0.16323465 0.13253735 0.16139396 -0.12821516 -0.07832121 0.13391615 0.07087296 0.16136791
-0.10677459 -0.12806524 -0.11469782 0.13120534 -0.12917165 -0.08909502 -0.035981268 -0.088079706
0.115509644 -0.008522138 0.03340639 -0.032841787 0.15529235 0.12725814 -0.006383091 -0.16057962
0.008373484 -0.10053353 0.10928394 0.14533092 -0.06530075 0.13270305 -0.04939328 0.063032866
0.028899089 -0.0645095 -0.057101056 0.09646799 -0.09018953 0.1715825 -0.16549274 -0.16504541
-0.106851764 0.11053528 -0.16149187 0.15573843 -0.15981448 0.10537793 -0.035480797 -0.15310702
0.08160119 0.06458467 0.16403674 -0.09371889 0.035206765 -0.17671295 0.025336832 -0.082849704
0.05980195 -0.094597444 -0.1619041 -0.0128365755 -0.014395043 -0.13739048 -0.056727506 -0.022111565
0.16071545 0.10905616 -0.073866606 0.0028897524 -0.027074099 -0.04069051 0.00032386184 0.16320573
0.044647038 -0.15249684 0.028476417 0.16761349 -0.068754576 -0.1423216 0.17224856 -0.16847107
0.055117473 0.110676035 0.11337419 -0.14060354 -0.09458697 -0.10978892 -0.117373854 -0.13211402
0.053555593 -0.14811112 0.09405808 -0.12830225 -0.009945944 -0.036732152 0.034866378 -0.054897115
-0.060247064 0.1049941 -0.12007527 -0.052259944 -0.023274064 0.12319361 0.17550914 -0.008383766
-0.066747144 -0.10095068 0.041296795 -0.027022645 0.099703595 0.0025104731 -0.053748928 0.119352296
-0.032804012 -0.017974094 -0.006714225 0.084880844 -0.14950459 0.077271596 0.050194472 0.13164596
-0.13942102 0.077003404 0.10333364 -0.057689972 0.08786054 0.089150146 0.045861587 0.0679234
-0.040923983 -0.013713315 0.11243956 0.026858494 -0.095893286 -0.08539914 -0.07542136 -0.11242324
-0.047710523 -0.1609476 0.06080678 0.14504488 -0.0641907 0.17178296 0.008392662 -0.05601921
-0.12203239 0.084986165 0.09336068 -0.058848992 -0.10118746 -0.03161393 -0.045998022 -0.1447725
-0.16266036 0.14229731 -0.14561795 0.022956267 0.0965357 0.04408638 -0.04733713 0.038748533
-0.017865717 0.07407944 -0.14347135 0.15043204 0.10848345 -0.13020466 -0.0063608587 0.0035703033
0.15051956 -0.13792384 -0.09347977 -0.1433183 0.14000653 -0.024721757 0.12758149 0.03771624
-0.011351645 0.1499189 0.04090558 0.10952298 -0.048907816 -0.10006054 -0.0112219155 -0.027760863
-0.017151803 0.013288423 -0.07026632 0.16879596 0.13285308 -0.026097417 0.026591778 0.017862067
-0.1277988 -0.16956392 0.11403428 -0.15121534 -0.1124986 -0.11350791 -0.112462945 0.0056234
-0.07700307 -0.08969909 -0.053750716 0.1455049 0.17067356 0.04444258 0.111666486 0.10423483
-0.042588398 0.09906022 -0.13485444 0.08629505 0.14227213 -0.02701898 0.06652005 -0.096990116
0.03617844 -0.09777101 0.007259667 0.08741222 0.02865459 -0.060975976 -0.08822888 -0.13807788
0.12804006 -0.094853565 0.13046543 -0.0063171387 -0.12428922 0.1438679 -0.10166966 -0.1378164
-0.10650999 0.06977147 -0.13758679 0.12976663 0.0619514 0.17535006 0.016276106 -0.11729474

graph_lstm_model.weight_hh f4 [128, 32]
00000000: 3910 09be e688 ed3d d0ed 3a3c f803 92bc
00000010: e82e f1bd 7d32 2bbe b4fe 793d c064 283b
00000020: 0461 1f3d 6a1e 923d 37ac 313e 2767 223e
00000030: 9941 dabd 80ac 6ebc 5e88 2abe e6fd bc3d
00000040: 20da e3bb 5641 0ebe 920a cb3d 861d 30be
00000050: 01c3 2abe d2b5 e43d cac5 c93d d2d9 e03d
00000060: 508e dfbc c825 523d 7551 2c3e 26d9 c53d
00000070: 94db 74bd 527f 14be 082e 9dbc 2e91 78bd
00000080: 9bb9 fabd 48ca 2fbd d6f3 f7bd eb0a c1bd
00000090: 7b07 97bd 56e1 29be 2ba6 ffbd be65 bf3d
000000a0: 60e2 edbc 002c 963a 26b3 8ebd 8668 c3bd
000000b0: c781 2d3e 008a 283b 78f0 9dbc 715f 21be
000000c0: 803f 03bd dd98 283e 58d6 253d 00b7 b8bb
000000d0: 098c 233e eafb e6bd 1774 163e e766 92bd
000000e0: d048 7cbc 0b8e 053e f695 cd3d 68e1 8c3c
000000f0: 7577 d2bd a07d c43b 405c 6d3c a0e6 b1bd
00000100: 80db 553b a072 8c3c 8544 143e 1ef6 d33d
00000110: 012a 333e 348b 24be d6db 72bd 300f 1bbc
00000120: 40fa e13c b8f9 19bd a6aa e33d f078 f83c
00000130: 3c5a 21be 2b2c 1e3e 20ef 403c 64e4 81bd
00000140: a0c0 4a3d faaf 843d 90c7 943d bb6e 8fbd
00000150: d700 22be ccb7 6d3d 63ea 0e3e 6400 103d
00000160: 20f9 ebbd 0000 0ebc 4162 f0bd 2d23 92bd
00000170: 5cd5 873d 1d10 24be 2b74 1ebe 8899 f73c
00000180: 50c1 563c fab8 b83d 2f99 85bd a303 1e3e
00000190: 2c61 07be 68b0 56bd cc1a 393d 4135 91bd
000001a0: 5b8b 1a3e 5008 b4bd f26e a03d ec0e 1ebe
000001b0: aef6 cd3d 5d43 0cbe 51ad ecbd c3c4 243e
000001c0: 46b7 d23d 2025 fe3b 801c 7d3d fa8f 72bd
000001d0: 0015 2cba 80dd c3bb 4e79 08be 6a29 23be
000001e0: 04fa 153d f2a4 e13d 0863 cc3c 6828 7a3d
000001f0: 655a 9fbd 4c71 023d 1516 10be 285a 993c
00000200: dc7c 063d 6009 66bd 7517 02be 08ea eebc
00000210: f60c 2abe 2d83 c4bd 86d9 a13d 30e0 50bd
00000220: 4862 a4bc 7a7b 31be 7e44 a43d cce6 943d
00000230: 089c 703d 2b45 013e 73bc cdbd 40f6 14bb
00000240: ecd1 25be 5b12 113e 27c8 abbd 6c95 14bd
00000250: fdf5 243e b83d f83c 87a2 0c3e b748 2b3e
00000260: d14d 86bd d017 6c3d 38eb eabc 0b2a c1bd
00000270: f9bd 0ebe 5a9a d63d a6a1 a03d 0ed1 a83d
00000280: 0531 2d3e 8ba9 15be 0ef8 00be 3e1d da3d
00000290: fe51 97bd 7262 c33d 3583 dabd 68f3 c3bc
000002a0: 9910 09be c60c fa3d 00e4 2cbd e0ab 743c
000002b0: 4e1b 7abd fc4b c1bd 17f2 033e bc69 8fbd
000002c0: ae86 b93d 40d7 f83c d618 cf3d c818 7a3d
000002d0: ecba 73bd a74b 1c3e 4f55 aabd e858 2bbe
000002e0: e06d b3bb 03ba f0bd 823f bc3d ec04 04bd
000002f0: 4346 b8bd 18a0 ffbc 6088 56bc 64a9 3a3d
00000300: 4d07 1fbe 1cff fbbd 7f95 ddbd 135d 193e
00000310: e006 debc 1143 bfbd e61e c63d 48af 38bd
00000320: 67f8 9abd cec3 fb3d 2716 203e 7c4a abbd
00000330: fd8c d3bd 54c7 40bd c5ea 103e 6a89 69bd
00000340: 9a32 bb3d cb19 093e e0aa 8bbd 5c6f 3f3d
00000350: 42e9 ab3d 1cb0 70bd 54dc 713d 373b 11be
00000360: 5789 0fbe 7725 0f3e d920 0f3e b2b1 01be
00000370: 4eb3 ed3d 4c83 68bd 0337 c8bd 76f2 65bd
00000380: a8af 85bc 28d4 d6bd 7cc9 01be 6046 623c
00000390: 3af1 9c3d 3287 883d 402c 053d 16bc 9b3d
000003a0: df3b 123e d70e 333e fd81 183e 2119 223e
000003b0: 06f4 dd3d 005d a73c 7f80 22be c61b 16be
000003c0: a820 203d 8cf3 58bd 29e4 2f3e 244d 2ebd
000003d0: 47df 2d3e f0d9 203d 6498 00be aa71 e83d
000003e0: c284 ffbd cf67 2abe b289 31be f49b 33bd
000003f0: 32fd cbbd 005b 61ba e819 9dbc d566 1bbe
-0.13385095 0.11598377 0.011409238 -0.017824158 -0.11776525 -0.16718479 0.06103392 0.0025694817
0.03891088 0.07134707 0.17350851 0.15859662 -0.10657043 -0.014567494 -0.16653582 0.09228115
-0.0069534928 -0.13892111 0.099141255 -0.17198762 -0.1667595 0.11167492 0.098521784 0.10979046
-0.02728954 0.051305562 0.16827948 0.096605584 -0.05977972 -0.14501694 -0.019186988 -0.06068533
-0.12242433 -0.04291752 -0.12107055 -0.094259106 -0.07374474 -0.16589865 -0.12482866 0.09345578
-0.029038608 0.0011457205 -0.069677636 -0.09541421 0.16944037 0.002571702 -0.019279703 -0.15759064
-0.03204298 0.16464563 0.040487617 -0.0056370497 0.15971388 -0.112785175 0.14692722 -0.07148533
-0.015398219 0.13042466 0.100383684 0.017197326 -0.10276691 0.005996421 0.014487326 -0.08686566
0.0032632053 0.017144501 0.14479263 0.103496775 0.17496492 -0.16068727 -0.059291683 -0.00946407
0.027585149 -0.037591666 0.11116533 0.030331105 -0.15757078 0.15446536 0.011775762 -0.0634239
0.049500108 0.06478877 0.07264626 -0.07003542 -0.15820633 0.05803661 0.13956599 0.035156623
-0.11522126 -0.008666992 -0.117374904 -0.071356155 0.06632492 -0.16021772 -0.15474002 0.030224577
0.013107613 0.090196565 -0.06523358 0.15431075 -0.13220662 -0.052414328 0.04519157 -0.070902355
0.15092222 -0.08790648 0.07833661 -0.1543538 0.10056816 -0.13697572 -0.11556495 0.16090684
0.10288863 0.0077558905 0.061794758 -0.059219338 -0.00065644085 -0.0059773326 -0.13327524 -0.15933767
0.036615387 0.11017789 0.024949566 0.06107369 -0.07780913 0.03184633 -0.14070924 0.018719748
0.03283392 -0.056161284 -0.1270426 -0.02916433 -0.16606507 -0.09595332 0.079028174 -0.05099505
-0.020066395 -0.17332259 0.08020876 0.072705835 0.058742553 0.12624042 -0.100457095 -0.0022729784
-0.1619336 0.14167158 -0.083877854 -0.036275312 0.16109462 0.030302867 0.13733874 0.16726957
-0.06557811 0.057639897 -0.028676614 -0.09431847 -0.13939656 0.10478659 0.07843332 0.08242999
0.1691323 -0.14615457 -0.12594625 0.10650109 -0.07388686 0.09540261 -0.10669557 -0.023919776
-0.13385238 0.122094676 -0.042209625 0.014933556 -0.061061196 -0.09438321 0.12885319 -0.07002589
0.09058891 0.030376077 0.10112159 0.06105879 -0.059504434 0.15263234 -0.083170526 -0.16733134
-0.0054757446 -0.11754229 0.09191801 -0.032231256 -0.08997776 -0.031204268 -0.013094038 0.0455717
-0.15530129 -0.123045176 -0.1081953 0.14976911 -0.027102888 -0.09338964 0.09673862 -0.045089036
-0.0756691 0.12293206 0.1563345 -0.08363816 -0.10329626 -0.047065094 0.14152057 -0.057015814
0.09140511 0.13388745 -0.06819701 0.04673706 0.083941 -0.0587617 0.059048012 -0.14182745
-0.14017235 0.13979135 0.13977374 -0.12665442 0.11606465 -0.05676584 -0.09776118 -0.056139432
-0.016319111 -0.10489684 -0.12674516 0.013810724 0.07663198 0.066664115 0.032512903 0.07604234
0.14280652 0.1748613 0.14893337 0.15829898 0.108375594 0.020430088 -0.1586933 -0.14659032
0.039093643 -0.05296664 0.1717688 -0.042554036 0.16979705 0.03927034 -0.12558132 0.11349805
-0.124764934 -0.16641162 -0.17337683 -0.0438499 -0.099604025 -0.0008596629 -0.019177392 -0.15175946
