Yolov5_DeepSort_Pytorch/model_best.pth.tar (torch, 562486 bytes, 78 tensors)

gatencoder.gat_net.layer_stack.0.w f4 [4, 32, 16]
000000 41 59 34 bd 3f e8 a4 3e 2d 46 cd 3d 1a fc b4 3e
       -0.04403043 0.3220844 0.100231506 0.35348588
000010 f7 e3 46 3e c4 4a 85 be 26 0c 28 be 59 37 1e be
       0.19422899 -0.26033604 -0.16410884 -0.15450801
000020 28 f0 9e be ae 95 0e be a1 b8 3b 3e ab 5b fa 3e
       -0.310426 -0.13924286 0.18332149 0.48898062
000030 70 55 e3 be 8e 70 2e be bd 94 c8 3c c8 c2 74 be
       -0.4440112 -0.17035124 0.024484986 -0.23902428
000040 96 27 ae be e0 30 45 3e 08 f7 3d 3d 85 93 f9 3e
       -0.34014577 0.19256926 0.046378165 0.4874536
000050 fe aa b2 3d 66 8f d5 3d 9d ca 2b be e9 b1 d6 be
       0.087240204 0.10427742 -0.1677651 -0.4193261
000060 f3 ff b9 be 58 5c 3f 3d f2 6e 0c 3e af 92 a9 3e
       -0.36328086 0.046718925 0.13714197 0.33119723
000070 b5 93 45 be f8 9e 58 be 15 d5 ee bd 3b 42 74 bd
       -0.19294627 -0.21154392 -0.11661736 -0.059633475
000080 c8 72 01 bf 77 31 ae be a3 3b fa be 3c 70 a6 3d
       -0.5056577 -0.34022114 -0.48873624 0.08126876
000090 9d e7 08 3d 77 a8 dc 3e f5 e2 95 3e 18 f5 2c 3e
       0.03342401 0.43097278 0.29274717 0.16890371
0000a0 97 d1 34 3f 2b a3 b3 3e 7d e3 d4 bc e0 1a 1f bf
       0.7063231 0.35085425 -0.025987381 -0.62150383
0000b0 9f 5a 2d 3f 31 2f 05 3e 3e 48 1e be 7a 01 91 3e
       0.677164 0.13006283 -0.15457246 0.2832144
0000c0 72 cf 29 be fc a7 81 be a1 f5 39 be 46 3d 8d be
       -0.1658304 -0.25323474 -0.18160106 -0.2758581
0000d0 cc 32 7e 3d 23 90 75 3e 39 db 35 3e d5 9c 55 3e
       0.062060162 0.23980765 0.17759408 0.20860608
0000e0 b0 f2 85 3e 42 07 f9 3d aa 76 d4 bd 89 7e fe be
       0.26161718 0.121595874 -0.10374196 -0.49705914
0000f0 50 f9 c9 3e e4 f9 77 3e 6f 04 a5 3c 3e f5 be 3d
       0.39448023 0.2421642 0.020143716 0.0932412
000100 f1 d3 2f bd a1 30 55 be 3a 65 43 bd fd b4 2b bf
       -0.042926732 -0.20819332 -0.04770396 -0.6707304
000110 5a eb 53 3d e1 b1 99 3e cc 5d c9 3e 9a a6 e9 3e
       0.05173812 0.30018523 0.39329374 0.4563492
000120 1e 75 9f 3e ab 89 82 3c 10 a9 d4 be e6 4a 71 bf
       0.3114404 0.015934786 -0.41535234 -0.9425491
000130 cb 78 21 3f 68 75 51 3f 30 8c 83 bd b9 de a1 3d
       0.6307494 0.8181977 -0.06423223 0.07903809
000140 12 04 ba 3e eb af 84 be 3a c8 83 be d9 af 9a be
       0.3633123 -0.25915465 -0.25738698 -0.30212286
000150 38 63 d7 bc 06 d0 d4 3e c6 02 c4 3e 0e f1 01 3f
       -0.026292428 0.4156496 0.38283366 0.50758445
000160 3b 74 d7 3e 6f 79 3c 3d 44 24 53 be 10 be c3 be
       0.42080864 0.046014246 -0.20619303 -0.38230944
000170 93 8a f2 3e 58 b7 ec 3e 58 9d b3 3d 10 c1 96 3e
       0.4737135 0.4623363 0.08770245 0.2944417
000180 10 62 1b 3f 2b ea 8a 3e 2a 40 95 3e 98 36 58 be
       0.60696507 0.2713178 0.29150516 -0.21114576
000190 79 ca a9 3e 44 c5 55 be 98 4d fe 3d fd da cc 3c
       0.33162287 -0.20876032 0.124171436 0.025006765
0001a0 de c0 0d 3e 53 d1 dd be c8 5e a2 be 48 1b 7a be
       0.13843104 -0.43323764 -0.31712937 -0.2442447
0001b0 3f a5 ad 3e 62 98 4c 3e 16 54 4f 3e fb db 29 bd
       0.33915135 0.19980004 0.2024692 -0.041469555
0001c0 16 cd 76 bd cc e2 23 bf d5 d2 95 bd 6e 16 81 3d
       -0.06025418 -0.6401794 -0.07315604 0.06303106
0001d0 67 30 23 3d a2 a6 93 3d ef 1a a7 3e 54 4e ff 3d
       0.039841082 0.07209517 0.32637736 0.12466112
0001e0 30 28 0e 3f 2f f6 a1 3e f0 95 9e be 69 3b ba be
       0.5553007 0.31633136 -0.30973768 -0.3637345
0001f0 3d c8 72 3e 26 77 45 3e 80 8a f4 3d b1 0b d6 3e
       0.23709197 0.19283733 0.11940479 0.41805795
000200 95 67 fb bd 7e 54 f6 be f5 15 37 3e 75 6e 9d 3e
       -0.12275616 -0.48111337 0.1787947 0.30748335
000210 bc 6f ef bd df 37 1d 3e 07 0e 18 be 62 88 55 be
       -0.116912335 0.15353344 -0.14849101 -0.20852807
000220 ce 29 90 be dd ac 2b be c0 da 83 3e 6b 0c 9b 3e
       -0.28156894 -0.16765161 0.2575283 0.30282912
000230 33 39 5f be 2a 79 ab be 9d 04 4d be 46 1d 14 3f
       -0.21799164 -0.33490878 -0.20021291 0.5785717
000240 5a d8 ae 3e ac 90 f8 3e 3d 1c b9 bc 82 14 f4 bd
       0.34149438 0.48547876 -0.022596473 -0.11917974
000250 31 14 84 3d 46 60 f8 3c cb 94 4e bd 84 61 89 3e
       0.06449164 0.030319344 -0.05043487 0.2683221
000260 49 ae 31 3d 04 89 bc b9 b7 23 2f be 73 fa e4 3d
       0.043379102 -0.0003596024 -0.17103468 0.11180582
000270 77 67 ed 3d 97 1e 77 3e 77 34 83 3d 32 09 91 3e
       0.11592 0.24132763 0.06406491 0.28327328
000280 5e 28 4c 3e 59 e2 d2 3d 87 4a 94 3d 54 98 0b be
       0.19937274 0.10297079 0.072407775 -0.13632327
000290 30 8d 52 3e 37 95 da 3d 5a 32 d5 bb 2b 0d 4a 3e
       0.20561671 0.10672992 -0.0065062465 0.19731586
0002a0 e0 45 53 3c de ca d0 bd 13 52 f1 bd 97 62 13 3e
       0.0128950775 -0.10194944 -0.117832325 0.14393078
0002b0 21 79 f9 bd be f4 9f 3b 1c 92 83 3e 19 7b 8a be
       -0.12181307 0.0048814705 0.2569741 -0.2704704
0002c0 3f b1 6e 3e 48 6e 29 3d 76 63 82 3e 55 ba 2c 3e
       0.23309802 0.041364938 0.25466508 0.16867955
0002d0 63 1f 01 be e4 89 8f bd d9 ac 87 bc 82 35 1b be
       -0.1260963 -0.070087224 -0.016561912 -0.1515713
0002e0 19 b0 2e be 99 b4 bf 3d ec b6 80 3d 68 0e 90 3d
       -0.17059363 0.09360618 0.062848896 0.07033998
0002f0 5c 15 55 be c5 04 a5 bd 22 93 df bc 5b 9a 5b be
       -0.20808929 -0.0805755 -0.027291838 -0.214456
000300 60 f6 85 3e 25 02 9a bc a0 6f b9 3d cc aa ff bc
       0.26164532 -0.01879985 0.09054494 -0.031209372
000310 7d c6 b5 3c b3 93 80 bc f5 f4 8e 3c 8c 6b 02 3e
       0.022189373 -0.015695428 0.017450789 0.12736338
000320 27 1d c4 3d 49 da 1e bd ea 02 8a be ee 3c 0a bc
       0.09575873 -0.03878239 -0.26955348 -0.008437378
000330 90 ca 23 3d 72 81 9c 3d 05 4c 05 bd 77 9b d3 bd
       0.0399881 0.07641877 -0.0325432 -0.10332387
000340 5c 57 02 be af 08 c8 be 70 cf 5d be d0 a5 85 be
       -0.12728637 -0.39069125 -0.21661162 -0.26103067
000350 cb 3d 0c bd 32 fd 8e 3e b7 97 26 3e c9 d5 96 3e
       -0.034238618 0.27927548 0.16268812 0.2945998
000360 c9 b2 b0 3e fa b8 62 3d b6 ba 37 bd a1 b5 80 be
       0.34511402 0.05535219 -0.044855796 -0.25138572
000370 52 af 8c 3d be ea 1f 3d 47 fb 96 bd 5d fa d6 3e
       0.06869377 0.039042227 -0.07372146 0.41987887
000380 ff 15 bd 3e 92 b4 b6 3e 8e 5a 37 3f 7d 62 d2 be
       0.36930844 0.3568464 0.7162255 -0.41090766
000390 e3 af 9b 3e da 18 a5 be ce e9 5a bd 20 f0 e7 3d
       0.30407628 -0.32245523 -0.05344563 0.11325097
0003a0 c9 3c 31 be e6 6d df be 46 df 60 be be 14 39 3e
       -0.17308344 -0.43638533 -0.21960172 0.18074319
0003b0 80 0a 6f bd 9a 80 17 3e 63 de 4e 3e d7 60 98 bf
       -0.058359623 0.14795151 0.20202021 -1.1904553
0003c0 16 db c6 3e fa b5 26 3e 80 a4 aa 3d 09 ae 8a be
       0.38839024 0.16280356 0.08332157 -0.27085903
0003d0 12 a6 1e 3d 39 1a ed bd 55 a5 60 3e ac 9a 85 3e
       0.038732596 -0.11577267 0.21938069 0.26094568
0003e0 a6 4a 13 3e d6 09 97 3c 39 27 d0 bd d4 8e 1c be
       0.14383945 0.018437307 -0.10163731 -0.1528886
0003f0 5a cf 89 3d af c9 64 3d 77 d0 ad bb c5 8c 64 bd
       0.06729002 0.055856403 -0.005304392 -0.05579831

gatencoder.gat_net.layer_stack.0.a_src f4 [4, 16, 1]
000000 81 55 84 bf d9 1c 1f bf 1b c7 5f bf aa ce 4a 3f
       -1.0338594 -0.62153393 -0.87413186 0.79221594
000010 3b 3f 7b bd b6 17 e0 3e d3 c7 d2 3e 1d 58 2f bf
       -0.0613396 0.4376809 0.4116808 -0.68493825
000020 5c 2b 97 3e 14 29 2a 3f d1 59 0c 3f cf dd 6d 3e
       0.29525268 0.6646893 0.5482455 0.23229145
000030 3e 78 be bd 1a 09 35 bf ae 69 ae be 14 f7 4e 3f
       -0.09300278 -0.7071701 -0.34065002 0.8084576
000040 30 c0 9b 3c 00 93 da be 8d d1 39 3d e7 f4 97 3f
       0.01901254 -0.42690277 0.04536586 1.1871613
000050 fa 5c 75 bf 9c 8c 1d 3e be eb 37 be bd 43 50 bf
       -0.95844996 0.1538567 -0.17961022 -0.8135336
000060 e9 3d d3 3d b6 37 a0 be a1 8e c9 be a5 7a c3 be
       0.10314543 -0.31292504 -0.3936663 -0.38179508
000070 9d be 8a bf 74 d6 20 3f fd 1d a9 be 9d 40 ff 3e
       -1.083942 0.6282723 -0.33030692 0.49853984
000080 48 e1 9c 3e 7d 76 f2 bd b5 cc 05 bf 30 7f 44 be
       0.30640626 -0.11839006 -0.52265483 -0.19189143
000090 f9 45 59 3f 80 28 a2 3e 86 34 81 be fc ec 3c bf
       0.84872395 0.31671524 -0.25235385 -0.7379911
0000a0 56 77 a5 bc fd 37 91 bd af d5 c0 be e5 44 84 bf
       -0.020198505 -0.07090757 -0.37663028 -1.0333525
0000b0 62 10 96 be f3 6d 93 3f 80 e0 c0 3d b9 99 a1 3c
       -0.29309374 1.1517929 0.0941782 0.019726621
0000c0 dd 46 1d 3f 09 74 c9 3f 20 67 28 bf 3a dd 64 bf
       0.61436254 1.5738536 -0.65782356 -0.89400065
0000d0 df 9b e3 be a1 66 c4 be 92 5a a5 3e 22 2c 7d bf
       -0.44454858 -0.3835955 0.32295662 -0.98895466
0000e0 f1 88 db be 86 3f 04 3e 93 9d 5b 3c 8c aa bf bc
       -0.42877916 0.12914857 0.013404268 -0.023396753
0000f0 5d 9a 73 bf 54 05 82 bd 84 4a 06 bf a7 fe 40 3e
       -0.95157415 -0.063486725 -0.5245745 0.18847142

gatencoder.gat_net.layer_stack.0.a_dst f4 [4, 16, 1]
000000 66 ba 9d be 07 b3 bf be 66 4a 21 bf 25 84 fd bd
       -0.30806273 -0.37441275 -0.6300415 -0.1237872
000010 b2 27 11 bf 60 39 1b 3f fb 63 89 3e 9d 35 02 3f
       -0.56701195 0.6063442 0.26834092 0.5086306
000020 7d 51 3e 3f 08 f0 da 3e 8f 13 f8 be 08 23 b2 be
       0.7434309 0.42761254 -0.48452422 -0.34792352
000030 85 89 df 3e 53 5f 15 3f 68 f6 72 be e9 63 cd 3e
       0.43659607 0.5834858 -0.23726809 0.40115288
000040 fa e0 8b be d7 ab a2 be e1 8a 69 bf 59 e8 c6 3e
       -0.2732008 -0.31771728 -0.9122754 0.38849142
000050 c1 1a 6d be 4c db 88 bd fc fb c5 be 2f 20 52 3d
       -0.23154737 -0.066824526 -0.3866881 0.051300224
000060 1e 42 f6 3e 9f ad 9a be cd 4e 3c be 20 7c 99 3f
       0.48097318 -0.30210587 -0.18389435 1.1991005
000070 57 76 0e bf c2 12 5f be e7 37 17 3f 26 ee 4e 3f
       -0.5564932 -0.217845 0.59069675 0.80832136
000080 e9 a7 86 bb 83 26 c9 3c ad b9 e4 be ef 0b 18 3f
       -0.004109372 0.024554497 -0.4467291 0.5939321
000090 22 4b 06 be eb 76 dc 3e 10 48 39 bc ba b3 b1 be
       -0.13114598 0.43059477 -0.011308685 -0.34707433
0000a0 e1 c4 b3 3e e5 1a 3b bf 43 0e 93 bd fa eb 2c bf
       0.35111144 -0.7308791 -0.071804546 -0.6754757
0000b0 f9 cd 0e 3f 73 73 34 3f 1e 73 d1 3e a8 eb 68 bf
       0.5578304 0.7048866 0.4090814 -0.9098458
0000c0 86 45 ce 3c 8b 48 3c 3d 2a 0e 85 3f 89 5b 89 3e
       0.025179636 0.04596762 1.0394948 0.26827648
0000d0 65 4a 0c 3f c0 e1 0c 3f 3b 11 d0 bd f4 5c 25 3f
       0.5480102 0.5503197 -0.101595365 0.6459496
0000e0 6b 88 85 3f 4c b6 a8 3e ce a0 f4 be b5 83 0c 3f
       1.0432256 0.3295158 -0.47778934 0.5488847
0000f0 ab a8 ee 3e 80 24 8a 3e 55 2d ef 3e 94 d8 72 3e
       0.46613058 0.26980972 0.46714273 0.2371543

gatencoder.gat_net.layer_stack.0.bias f4 [16]
000000 50 9d 35 bd c1 e1 32 bd 23 f3 44 3e ef 4b 52 3d
       -0.044339478 -0.043672327 0.19233374 0.051341947
000010 85 7c 64 3e f1 91 85 bd ad 2a 8f bb 6c 41 71 3e
       0.22313125 -0.06521977 -0.004369101 0.23560113
000020 8e b1 e8 be c5 36 0b 3d 6d ca 62 be 03 e1 74 be
       -0.45447963 0.03398778 -0.22147532 -0.2391396
000030 2b 0e 24 3e bb e5 97 bd 8e 7e 0c 3e 0b fc 52 3e
       0.1602103 -0.074168645 0.13720152 0.2060396

gatencoder.gat_net.layer_stack.1.w f4 [1, 64, 32]
000000 8c db 18 3e ed d1 cd 3d f0 c3 df be 2c 9f 2f be
       0.149275 0.10049806 -0.43704176 -0.17150563
000010 40 e5 b8 3d 3c 8a 99 3d d6 06 8b bc f8 c9 50 bc
       0.09028101 0.07497069 -0.016971033 -0.012743466
000020 34 ac b7 3e 88 c4 53 3e 4d ec c7 bd 0d 31 47 be
       0.35873568 0.2068044 -0.09761868 -0.19452305
000030 56 7b 20 3d 0e ba 01 be 4e f7 a2 be ba e7 c3 bd
       0.039180122 -0.1266863 -0.31829304 -0.09565683
000040 30 d5 c6 be c6 9f 14 3d 18 dc 02 be 46 7b 79 be
       -0.38834524 0.036285184 -0.12779272 -0.24363431
000050 48 5e 57 bd e6 e4 97 3e 20 70 f1 bd 21 4d 17 3e
       -0.052580148 0.29666823 -0.11788964 0.14775516
000060 fa b6 a6 3e 21 97 12 3d a9 80 b6 bd 85 15 4c 3e
       0.32561475 0.03578866 -0.08911259 0.19930084
000070 34 bb b3 3e e9 f4 b2 be 1c 09 64 3d 95 42 73 be
       0.35103762 -0.34952477 0.05567275 -0.23755868
000080 5e 64 9b 3e ec 52 5d 3d 50 b0 50 be b0 74 0a be
       0.30350012 0.05403416 -0.20379758 -0.13521075
000090 41 bb 56 bd 7b 6c 8b bd ef f6 ae bd 52 49 45 be
       -0.052424673 -0.068078004 -0.085431926 -0.1926625
0000a0 85 7f d1 3d cf a0 45 3d 58 7e 2a be 64 e7 43 be
       0.102294005 0.048249062 -0.16649759 -0.19131237
0000b0 72 00 e1 3d 66 ab fb bd 7c 20 93 be fd 4a e3 3d
       0.10986413 -0.12288551 -0.2873572 0.11098287
0000c0 7b ce 1a be b3 ab 66 3d 89 b6 f1 3d 0e ca 02 be
       -0.15117829 0.05631609 0.11802394 -0.1277239
0000d0 ef 21 dc 3d 81 64 73 3e 8b 34 04 be b4 2c 85 3c
       0.1074866 0.23768808 -0.12910669 0.016256668
0000e0 5e de 59 3e 0e 1f bb bd b7 2c 0d 3d 84 8e d8 3d
       0.21276233 -0.091367826 0.03446647 0.10574058
0000f0 f5 5d 97 3e 54 0d b2 bd d6 42 12 be 73 ec 47 be
       0.2956387 -0.086939484 -0.14283308 -0.19523792
000100 bd 9b 61 3e 07 83 a8 3d 29 24 c3 be ed b9 e2 bd
       0.22032066 0.082281165 -0.38113526 -0.11070619
000110 2e 43 d1 3d 1b 09 85 3c 3d 55 1b bc be 9f e1 bd
       0.10217892 0.016239693 -0.009480772 -0.110167965
000120 4c 41 d1 3e af 82 87 3e a1 0d c3 bd 21 fc 6a be
       0.4087013 0.2646689 -0.09524084 -0.22947742
000130 81 a3 08 3d a3 76 07 be 47 e2 c0 be be f4 98 bd
       0.033359054 -0.1322885 -0.37672636 -0.07468556
000140 90 65 8e be aa 81 6d 3d 8c 12 29 bb 51 62 85 be
       -0.2781186 0.057984985 -0.0025798408 -0.26051572
000150 27 be 0e 3d 41 53 95 3e 85 f0 23 bd 67 1e 5a 3a
       0.034849312 0.2916508 -0.0400243 0.00083205703
000160 bb 3c a6 3e d5 ea a6 3d f8 0f 14 bd 0c 1b 67 3e
       0.3246821 0.081502594 -0.03614804 0.22568911
000170 73 98 7f 3e ea 3f 35 be 2f 8e 2d 3d 00 f5 1b be
       0.24960499 -0.17700163 0.042371925 -0.15230179
000180 8e bb 38 be a1 31 a3 bd d1 43 bb 3e 0b f0 a5 3d
       -0.18040296 -0.0796845 0.36575177 0.08102425
000190 54 84 e7 bc 22 90 0f 3d 7a df 08 3d 31 a0 0c 3e
       -0.028261341 0.035049565 0.03341625 0.13732983
0001a0 1c 35 b4 be dd 5c 1e be 96 05 db 3d 26 95 d3 3d
       -0.3519677 -0.15465112 0.10694425 0.10331182
0001b0 5c b7 80 3c 25 7a 18 3e fa 39 d1 3e 4a 4d e9 3a
       0.015712433 0.14890344 0.40864545 0.0017799523
0001c0 d5 e7 9d 3e 5d 0a c6 bc a3 81 59 3d 31 35 5d 3e
       0.30840936 -0.024174863 0.053102147 0.21602322
0001d0 4f 1a eb bc 5d 8c 96 be 76 24 8b 3d 0b f2 40 bd
       -0.028699068 -0.29403964 0.06794064 -0.04710583
0001e0 04 00 b1 be 04 fb db bd 1b 14 0e 3c 1c 43 2d be
       -0.34570324 -0.10741237 0.008671786 -0.16920131
0001f0 75 44 67 be 94 df 8d 3e 74 7d 06 bd ce 67 3a 3e
       -0.22584708 0.2770964 -0.032834485 0.18203661
000200 9b 53 a0 3e 3a ee 86 be e8 be 0a be 0a 9f 16 be
       0.31313786 -0.26353627 -0.13549387 -0.14709106
000210 13 2a d9 bd 20 c0 62 be 7e f8 11 be ca 34 82 be
       -0.10603728 -0.22143602 -0.14254948 -0.254309
000220 01 3f 72 3e cf 51 b0 3d 82 34 d6 bd 96 07 80 bd
       0.23656847 0.08609354 -0.10459234 -0.06251447
000230 96 89 fd 3d 80 65 9a 3c 89 75 ce bd f2 b2 ff 3d
       0.12379758 0.018847227 -0.10081012 0.12485303
000240 65 71 18 3d dc 1f 18 3e 1e 26 b2 3b 86 1a 44 be
       0.037217516 0.14855903 0.005436673 -0.19150743
000250 15 af 37 3d d2 fa e9 3d 66 54 30 be 45 59 5e bc
       0.044844706 0.11424793 -0.17219695 -0.013571088
000260 6c 44 85 3d a3 27 a9 bc a0 65 0e bd 8d 31 09 3e
       0.06507191 -0.020648783 -0.034764886 0.13397808
000270 b3 13 60 3e 15 a1 b6 3d 60 e0 32 bd 13 3d 56 bd
       0.21882515 0.08917443 -0.043671012 -0.05230434
000280 05 46 77 be e9 e2 10 bd ac b8 99 3e 39 c3 e2 3d
       -0.24147804 -0.03537265 0.30023706 0.11072392
000290 e0 7c 33 bc e6 16 85 3d e1 dd bc 3d fd f1 90 3d
       -0.0109550655 0.06498508 0.092220075 0.070774056
0002a0 00 21 97 be f4 dc 9a bd c9 56 3c 3e 0e e2 9f 3d
       -0.29517365 -0.07561675 0.18392481 0.078067884
0002b0 9f e2 60 bd 91 3a d3 3d b2 b9 d5 3e ed 08 b6 3d
       -0.054903623 0.10313905 0.41743237 0.08888421
0002c0 b1 27 87 3e 84 81 a6 bd 53 8a a5 3d 08 6f 8c 3e
       0.2639747 -0.08130172 0.08083024 0.2742846
0002d0 7b e8 d9 bd 17 a1 b8 be 6d 8c 8b 3d 4a e2 ea 3c
       -0.10640045 -0.36060402 0.068138935 0.028672356
0002e0 ed 4d 7c be d0 b6 a6 3a 30 0c 21 3d 48 0c 11 be
       -0.24639101 0.0012719277 0.039318264 -0.14164841
0002f0 14 d0 71 be f7 8a ef 3d ef 64 a4 3c 2e 7a 51 3e
       -0.23614532 0.11696427 0.02006766 0.20456764
000300 47 ad e5 bd 3b 6d 5c 3e 7a a5 f5 3d 9a d1 b8 3d
       -0.11214691 0.21526043 0.11994453 0.09024353
000310 5e 16 8f 3d 5a 08 55 3e 34 a7 8a 3d c0 47 71 3e
       0.06986688 0.20803967 0.06770173 0.23562527
000320 7c 14 4a bd d5 b1 6c bd ca 85 31 3e 08 21 c2 3d
       -0.04933594 -0.05778678 0.17336193 0.094789565
000330 85 c9 95 bd 2d 81 e1 3d 82 53 1c 3d 83 40 27 be
       -0.073138274 0.110109664 0.038165577 -0.16333203
000340 c8 01 53 bd 67 c0 32 be 2b db b4 bd 5e 72 f0 3d
       -0.05151537 -0.17456208 -0.088308655 0.11740564
000350 b8 d5 96 bd cb 45 20 be 99 70 36 3e f4 6f 22 3e
       -0.07364982 -0.15651624 0.1781639 0.15863019
000360 ce bd 8d 3b d4 52 11 3e 97 66 16 be 4c a7 1f bd
       0.004325605 0.14191753 -0.14687572 -0.038977906
000370 b8 b2 fe bd c2 c6 1f be 23 e0 d5 3d 44 aa 11 3d
       -0.12436432 -0.15603164 0.10443141 0.03556277
000380 50 96 c5 3d 98 fd 86 3d 87 f2 82 be cd ae 17 be
       0.096478105 0.06591338 -0.2557566 -0.14812775
000390 ad 4e 74 bd 6b f0 ec 3c 4e 4e 57 bb 83 89 a5 bd
       -0.059645344 0.028923234 -0.003285307 -0.08082869
0003a0 ca 24 9f 3e c0 71 62 3e 86 bd fe bd ba fd 11 be
       0.31082755 0.22113705 -0.124384925 -0.14256945
0003b0 00 95 d6 3c 6d 16 5b be ed 6b 92 be 67 5e 94 3b
       0.026194096 -0.21395274 -0.28597966 0.004527855
0003c0 ce 3a 28 be 7a ca 04 3e bd 95 93 3d d8 5d ba bd
       -0.16428682 0.12967864 0.07206295 -0.090999305
0003d0 f7 ef d9 3d a6 a9 9d 3d 41 ba b4 bd e6 19 a4 3b
       0.10641473 0.076983735 -0.088245876 0.00500797
0003e0 a1 c0 81 3e 9f b5 bb 3c de d6 1d 3d e0 22 66 3e
       0.25342277 0.022913752 0.03853499 0.22474241
0003f0 8a 6e 49 3e 71 02 85 be f7 04 86 bc da d0 1d be
       0.19671074 -0.25978425 -0.01635979 -0.15411702

gatencoder.gat_net.layer_stack.1.a_src f4 [1, 32, 1]
000000 5b fc d7 3e 84 a6 9a be fb b5 91 be 23 8c a8 3e
       0.4218472 -0.30205166 -0.28459153 0.32919416
000010 84 d8 d1 3e 85 c5 88 3e 3b d8 95 3e 7d 0d 8d bd
       0.409855 0.26713195 0.29266533 -0.06887338
000020 78 7f 1a bc 0e d1 44 be 95 09 29 bf 84 51 0d 3e
       -0.009429805 -0.19220373 -0.66030246 0.13800627
000030 74 b4 ce 39 78 76 be 3e 22 0b af 3d cb 7c 84 3d
       0.0003942583 0.3719976 0.08547045 0.06469115
000040 8d d7 c2 3e f7 2b ac be be 64 25 3d 72 39 10 bf
       0.38055077 -0.33627293 0.04037928 -0.56337655
000050 30 24 2b 3e d8 2a e2 3e 12 aa 47 be 5b cf bd 3e
       0.16713023 0.44173312 -0.1949847 0.37072262
000060 84 f8 0d bf ef 48 c5 bd 36 89 2a bf 27 27 0d be
       -0.5545733 -0.096330516 -0.6661562 -0.13784467
000070 9d ac 81 bd c9 5f b2 bd 6f 60 8e 3e 90 b9 7a 3e
       -0.063317515 -0.08709676 0.27807948 0.24484849

gatencoder.gat_net.layer_stack.1.a_dst f4 [1, 32, 1]
000000 db b9 51 3e 22 74 51 3e 41 45 1f bf d7 33 ab be
       0.20481054 0.20454457 -0.6221505 -0.33437988
000010 2a 73 7e 3c 3f fb 79 3e 12 f1 e0 bd 24 50 04 3d
       0.015530387 0.24412249 -0.109834805 0.03230299
000020 0d 5f 81 3e 84 0f 4a 3e d3 df da bd d8 2b 33 bd
       0.2526783 0.19732481 -0.10687222 -0.043742985
000030 16 30 50 be e1 21 95 be 7d d8 36 bf b5 05 61 be
       -0.20330843 -0.2912741 -0.71424085 -0.21974833
000040 b4 97 fe be 98 6f 1b 3e 5d d9 ae be 59 9c 87 be
       -0.49725115 0.15179288 -0.3415021 -0.2648647
000050 2d fb 2d bc bb e5 b4 3e 42 84 3d bd 72 9b 45 3e
       -0.010618967 0.3533152 -0.04626871 0.19297579
000060 ba 05 7e 3f 97 0e 9a 3e 1c 58 60 3c 3b b2 c5 3e
       0.9922749 0.30089256 0.013692882 0.38612542
000070 cb f5 05 3f a3 f9 89 be 9b 7a a0 3e 61 0a 79 bf
       0.52328175 -0.2694827 0.3134354 -0.9728146

gatencoder.gat_net.layer_stack.1.bias f4 [32]
000000 11 fe c4 3e 58 50 c1 be 40 26 36 bf 0f 47 a1 bd
       0.38475087 -0.3775661 -0.71152115 -0.078748815
000010 80 65 50 3e 72 5e 49 3e f4 ed 5f 3e f0 91 d3 be
       0.20351219 0.19664934 0.21868116 -0.4132228
000020 c1 6f 87 3f 6c e6 06 3e fd 43 1b be 4b 69 af be
       1.058098 0.13173836 -0.15162654 -0.3426002
000030 b1 b6 d4 bd a3 95 7e be 2c 36 4c bf 33 5c df be
       -0.10386408 -0.2486177 -0.7977016 -0.4362503
000040 df a0 58 bf 4c 4d c1 be 49 68 bb bd ea 93 97 be
       -0.8462047 -0.37754285 -0.0915075 -0.29605037
000050 76 78 53 3d b1 17 31 3f 76 95 3a be 91 c5 90 3e
       0.051628552 0.69176775 -0.18221077 0.2827573
000060 c0 b9 a3 3f 51 8b e0 3e bd 68 f7 be b0 0c 92 3e
       1.2791061 0.4385629 -0.48322096 0.28525305
000070 b1 1c f1 3e 94 a4 44 bf 1b 6b 31 bd c5 76 0f be
       0.47092202 -0.76813626 -0.043315034 -0.1401015

traj_lstm_model.weight_ih f4 [128, 2]
000000 5c 61 8b 3e be 59 2f be 08 45 59 3e 1e 4f 5a 3f
       0.27222717 -0.17124078 0.2121774 0.85276973
000010 8f 12 ce bc 8b cb 62 3f c3 dc 17 3d 75 3e 11 3f
       -0.025155334 0.8859183 0.03707577 0.56735927
000020 23 b7 59 3f f5 3c cf 3f a0 ad d2 bf 21 2b 23 40
       0.8504507 1.6190478 -1.6459236 2.5495074
000030 5a d7 73 3d 73 a8 3b 3f d6 cd 64 3f 2c 63 6c 3e
       0.059531547 0.7330391 0.8937658 0.23084706
000040 f9 7b c1 be 7f 03 a8 3f 03 fe 60 bb 80 aa f2 bc
       -0.37789896 1.3126067 -0.003433109 -0.029622316
000050 f6 16 ed bf 3d 3a 67 3e 03 e9 d9 bf ab a6 03 c0
       -1.8522632 0.2258081 -1.7024235 -2.0570476
000060 f5 82 c5 bd 65 fe a6 bc b9 37 a9 3c 08 05 1a bf
       -0.09644119 -0.020384977 0.020656453 -0.6016393
000070 2f 74 f7 3f fe a5 42 bf 71 e8 35 40 65 09 28 40
       1.9332331 -0.76034534 2.842312 2.6255734
000080 2a 5a 13 c0 b0 04 45 40 29 21 10 3e 72 5d 2c bc
       -2.3023782 3.078411 0.1407515 -0.010520326
000090 e4 68 c1 3f 19 74 cd 3d 98 b2 10 c0 7b 19 1e c0
       1.5110135 0.100319095 -2.2609005 -2.4703052
0000a0 91 0f 76 3f 9a c2 38 c0 e2 73 94 bf 5d 73 ea 3f
       0.961175 -2.8868775 -1.1597865 1.8316456
0000b0 18 f5 94 be ad 46 91 3e 83 9e 48 40 e3 16 10 c0
       -0.29093242 0.28374234 3.1346748 -2.251397
0000c0 c3 5d 64 be 2e 63 0b be 7b da 2c 40 b7 ee ce 3e
       -0.22301392 -0.13612053 2.700835 0.404165
0000d0 8e d3 af bd 7f 6b 79 3c 67 9a f6 3f 73 20 61 bf
       -0.08585273 0.015223383 1.926587 -0.8794014
0000e0 25 a0 81 3f c8 7e 1a be 72 77 f6 3f dc 65 af c0
       1.0126997 -0.15087426 1.9255202 -5.481184
0000f0 ef 52 72 bf 59 3e 85 3e 0c 3c fa 3e a9 6d 23 3e
       -0.94657797 0.2602413 0.48873937 0.15959801
000100 71 ba 8e be f2 66 ce bd 01 29 8e 3f 05 97 8b 40
       -0.27876619 -0.10078229 1.1106263 4.362185
000110 e6 ab 98 3f 2f 80 b6 be af 49 29 40 4c cc 53 bf
       1.1927459 -0.3564467 2.6451223 -0.8273361
000120 a1 e9 3a 3f 68 0e a0 3f af 98 31 c0 f5 04 04 40
       0.7301274 1.2504396 -2.774944 2.0628026
000130 c8 bb 22 3e 74 78 26 be 82 31 1d 40 f9 6e 9a 3f
       0.15891945 -0.16256887 2.4561467 1.2065116
000140 e9 bb 2d c0 68 79 85 40 95 8d 8f 3e 36 1d 05 bf
       -2.7145941 4.17107 0.28037706 -0.519977
000150 a2 81 44 bf b8 e2 a7 be 2b 84 6d c0 ba 4c 82 c0
       -0.76760304 -0.3279016 -3.711192 -4.071866
000160 cb 48 39 3f 2a 56 05 c0 90 25 20 3f 2b 12 e8 bd
       0.723767 -2.083384 0.62557316 -0.1133159
000170 10 49 f8 3e 09 ef 18 bf 40 48 61 40 16 21 87 40
       0.48493242 -0.5973974 3.5200348 4.222789
000180 b7 79 09 bf c6 3d ca 3f 0f 11 11 40 a2 3e a9 be
       -0.5370135 1.5800102 2.2666662 -0.33055598
000190 a3 dc a7 3e 5b dd 06 bf d8 08 fb be 93 63 0e 3f
       0.3278552 -0.5268151 -0.49030185 0.5562069
0001a0 58 90 eb 3e 33 b1 26 c0 b0 32 5f bf 71 bc df 3f
       0.46008563 -2.6045654 -0.8718672 1.7479383
0001b0 26 42 96 3e e2 fc 73 3f 04 93 b3 3d ec 9d d3 be
       0.29347342 0.95307744 0.087682754 -0.41331422
0001c0 56 15 2f c0 ea 98 5c c0 f0 58 39 40 77 a8 71 3f
       -2.7356772 -3.4468331 2.8960533 0.9439768
0001d0 c2 66 29 40 04 b8 a4 40 20 3a 73 3f 19 2c 0a bf
       2.6468968 5.147463 0.95010567 -0.5397354
0001e0 03 6b c7 3f d6 83 e6 be f7 43 d3 3f 0d b1 8a c0
       1.5579532 -0.45022458 1.6505116 -4.3341126
0001f0 d1 a6 b3 3d 81 c7 36 bf 5e cf 3c 40 97 84 31 3e
       0.08772052 -0.7139817 2.9501567 0.17335735
000200 a8 a4 8e bd 47 63 e4 be b0 5a b2 bf d4 89 48 c0
       -0.069649994 -0.44606993 -1.3933926 -3.1334124
000210 74 48 ae bf 6a 0d e0 3f be 71 c8 3f ec f9 5b be
       -1.3615861 1.7504094 1.5659711 -0.21482056
000220 bb a6 c1 3e a1 7e b2 3f 06 27 93 3f ba f5 cb bf
       0.37822518 1.3944894 1.1496284 -1.5934365
000230 23 af 67 3e ed 1f cc be 47 6c 1b 40 a6 86 40 3f
       0.22625403 -0.39868107 2.4284837 0.7520546
000240 81 28 02 c0 41 5c 19 40 af 08 ce 3f 67 3b cb bf
       -2.0337222 2.3962557 1.60964 -1.5877503
000250 51 5c 93 3f c4 4d 23 3e 68 4a 1f c0 e7 6a 35 c0
       1.1512548 0.15947634 -2.4889164 -2.8346498
000260 be ad 39 3f 61 fc 15 c0 64 be 01 40 2b d7 ca bf
       0.72530735 -2.343529 2.0272455 -1.5846914
000270 fe e2 e8 be 37 f2 3f bf 68 af d7 3f a4 56 1a 3f
       -0.4548568 -0.74978966 1.6850405 0.60288453
000280 d4 3a 95 be 88 9d 77 3e 51 1a f2 bf d6 3f 57 3f
       -0.29146445 0.24181187 -1.8914281 0.8408178
000290 7e c1 85 bd 6b 8b 4e be aa 4d c5 3f 71 6f 2e bf
       -0.06531046 -0.20170371 1.5414326 -0.68138796
0002a0 c3 fe a6 3e 05 35 c5 bf 90 d8 17 3e d9 e7 ba be
       0.32616243 -1.5406805 0.14828706 -0.3650501
0002b0 cd 05 d2 3e ed e2 06 bf 5b f7 43 bf 60 2e cc bf
       0.4102005 -0.5269001 -0.7654931 -1.5951653
0002c0 54 32 98 3f cc 11 f6 3f 42 17 ae bf 6d d6 a0 bd
       1.1890359 1.9224181 -1.3600848 -0.078533985
0002d0 c4 f7 a6 3f bf 4b ea 3f 92 71 86 3f 23 80 4a bf
       1.3044362 1.8304366 1.0503409 -0.7910177
0002e0 ba 33 c9 bf 70 e1 4c bf 60 7d 12 bf 5c c7 29 40
       -1.5718911 -0.8003149 -0.5722256 2.652793
0002f0 b9 a0 bd bf 4f c8 66 3f 8a 25 f5 3f 42 38 a4 be
       -1.4814674 0.90149397 1.9152081 -0.3207417
000300 2e e6 cc be 46 ed bb be 17 19 95 3e 14 ec a3 3f
       -0.40019363 -0.36704463 0.29120705 1.280642
000310 d2 c8 5b 3e b3 92 e3 3e 00 96 56 3d 14 9b 12 3f
       0.21463326 0.4444786 0.052389145 0.5726788
000320 d1 53 a3 3f 45 96 1e 40 9e dd 03 c0 4d a9 0f 40
       1.2759954 2.4779217 -2.0604014 2.2447083
000330 b8 2e 12 3e 76 99 76 3f d9 85 49 3f 49 5c dd 3e
       0.14275634 0.9632791 0.7871986 0.4323447
000340 04 69 36 bf 0a 33 03 40 03 2a 90 be f2 89 32 3f
       -0.7125399 2.0499902 -0.28157052 0.6974174
000350 3f 7f 1b c0 87 27 e5 3c fc 5f 10 c0 70 cc 19 c0
       -2.4296415 0.02797295 -2.2558584 -2.4031029
000360 38 8d 9f 3d 98 f3 ed be 9e c6 8c 3e 93 90 45 be
       0.07790607 -0.4647491 0.27495283 -0.19293432
000370 74 66 26 40 da 95 b3 bf 77 b8 41 40 4e 84 11 40
       2.6000032 -1.4030106 3.0268838 2.2737002
000380 0d 6c e2 bf 42 c9 42 40 c0 26 7f 3e ce 48 ba 3e
       -1.7689224 3.0435338 0.24917126 0.3638367
000390 3c eb 08 40 33 3c 0f bd e5 f0 18 c0 29 42 14 c0
       2.1393576 -0.03496952 -2.389703 -2.316538
0003a0 51 31 d9 3f 83 bc 64 c0 5f 36 e3 bf 73 03 1e 40
       1.6968175 -3.5740058 -1.7750968 2.4689605
0003b0 b2 2a d6 be db 6c e9 3e ca 26 23 40 7c 38 cb bf
       -0.4182945 0.45590863 2.5492425 -1.5876613
0003c0 b6 25 8d be a7 0c 09 be 82 2b 44 40 15 ae df 3f
       -0.27567834 -0.13383733 3.0651555 1.7475001
0003d0 4b be 3d 3e 58 3b 03 3f 1d 56 12 40 7b fa 95 bf
       0.18529622 0.51262426 2.286506 -1.1717066
0003e0 73 04 dd 3f 80 2f 10 bd d5 7c cd 3f b8 4d 89 c0
       1.7266983 -0.03520155 1.6053721 -4.290737
0003f0 01 74 99 bf 52 4a 41 3f e9 38 59 3f aa 8e 84 3e
       -1.1988527 0.7550403 0.84852463 0.25890094

traj_lstm_model.weight_hh f4 [128, 32]
000000 4f 74 2c 3f b0 fb 8f 3e e9 11 24 3f 62 20 20 3e
       0.6736497 0.2812171 0.6408983 0.15637353
000010 31 ed a1 3e bf be 1c 3e 26 49 1d 3e 7c 2b 8e be
       0.31626275 0.15307139 0.15359935 -0.2776755
000020 9c f4 c3 3d 7e 4f 1b be a3 f1 4f 3e b6 e9 89 3f
       0.0956814 -0.15167043 0.20307021 1.0774448
000030 74 d2 e1 3e 67 95 03 bf e6 ae 4c 3e f4 3e 01 3e
       0.44105875 -0.51399845 0.19988593 0.12621671
000040 09 d6 bf be 82 93 92 3e 18 91 c7 3e 04 cc 72 3d
       -0.37467983 0.28628165 0.38977885 0.059276596
000050 40 52 28 3e a4 05 54 bf e9 55 91 bc 87 c8 00 3f
       0.16437626 -0.82821107 -0.01774116 0.5030598
000060 46 76 e1 be 34 70 60 3d 96 75 92 3d 20 6a 80 3e
       -0.44035548 0.054794505 0.07151334 0.25080967
000070 47 34 31 3f 06 98 98 be 5b ef 6f 3d bc af c3 3e
       0.69220394 -0.29803485 0.058577877 0.38220012
000080 be dc 40 bd 39 4f 86 be 7b 89 4d 3d b9 bc b9 bd
       -0.047085516 -0.26232317 0.05017994 -0.09069199
000090 f9 55 ed 3e 87 d6 29 be 2b 74 ad 3e 0b cb 04 bd
       0.46354654 -0.16585742 0.33877692 -0.0324202
0000a0 fe fb b4 3e c1 52 31 be 11 af b4 bd 65 0d 5c 3f
       0.35348505 -0.17316724 -0.08822454 0.8595794
0000b0 12 87 42 3e bf d6 4a 3e 73 05 11 3f dc 34 a3 3e
       0.18996838 0.19808482 0.5664894 0.31876266
0000c0 3c de ac 3d 4a f9 c0 bb 82 92 11 3f c7 8b 8f be
       0.08440825 -0.0058890926 0.5686418 -0.2803633
0000d0 a1 c2 96 3d 87 fb e5 bd 94 53 30 be 81 eb 7c 3e
       0.07361341 -0.11229616 -0.17219383 0.24699213
0000e0 bc a1 ef bd c4 56 f4 be 5d c2 bf bd e8 ff 4f 3d
       -0.1170077 -0.47722447 -0.09363244 0.05078116
0000f0 94 2a bf 3e 1d 8f 94 be 12 11 95 3d 7f 47 87 3e
       0.37337172 -0.29015437 0.072786465 0.26421735
000100 b2 cd 50 3e 1b 09 74 be ee 9d e6 be cb 42 cd bd
       0.20390967 -0.23831598 -0.45042366 -0.100225054
000110 8f 6b 05 3f 1f 96 4d bf 76 92 15 bf d5 16 3b 3e
       0.52117246 -0.8030719 -0.58426607 0.18270428
000120 ec 9a 26 bb 5a a7 3d be a0 bd 60 be 0b 96 4b 3e
       -0.002542193 -0.18520871 -0.21947336 0.19881456
000130 fc bd bf 3d ba 26 7e 3e 9d 83 74 3c 6f 75 20 3f
       0.093624085 0.2481946 0.014923957 0.6267919
000140 bc ab 9e be 9b 56 e7 be 16 29 e1 be 67 79 d5 3d
       -0.30990398 -0.45183262 -0.4397666 0.10423546
000150 9e 2c fd 3e 5d 01 00 3f 35 30 9b bd a5 3e 09 3f
       0.49448103 0.5000208 -0.07577554 0.5361121
000160 15 50 d0 bd ba 21 18 bf f9 2f bb 3d 22 86 dc 3e
       -0.101715244 -0.5942646 0.091400094 0.43071085
000170 e8 92 4e 3e b4 c7 fa be 39 c9 34 3e 27 dd dd 3e
       0.20173228 -0.48980486 0.17654885 0.43332788
000180 16 f0 0e 3f df 22 ca bc 57 2c a9 bd c9 0d 5a 3e
       0.5583509 -0.024674831 -0.0826041 0.21294321
000190 bf c5 ff 3d cd 51 7b bf 62 3c ff bd 37 ef fa 3d
       0.12488889 -0.98171693 -0.12462689 0.12252658
0001a0 01 b1 12 3f 33 c1 20 3e a0 22 72 be b3 36 64 3f
       0.57301337 0.156987 -0.23646021 0.89145964
0001b0 0e 5d 84 3e af fa c3 be 34 ce 11 3f be 28 09 3f
       0.25852245 -0.38277194 0.56955266 0.5357779
0001c0 66 dd 81 be d9 4b 35 be 9c 94 25 3f fb 43 05 bf
       -0.25364226 -0.17704715 0.64679885 -0.52056855
0001d0 c6 07 d9 3e 0f ac 1d bf ad 42 d9 be 4e 87 14 3f
       0.42388743 -0.61590666 -0.42433682 0.5801896
0001e0 b0 26 1a be 0f da 17 bf 01 6f 9b 3d 55 b0 0f 3f
       -0.1505382 -0.59317106 0.07589532 0.56128436
0001f0 51 65 4b bd 03 41 1f bf 5a 6b b7 3e 2f 7e 81 bd
       -0.04965717 -0.62208575 0.3582409 -0.06322896
000200 18 fa 49 be 31 55 07 3f b7 ce a2 3d 3f 06 2d 3f
       -0.1972431 0.52864367 0.07949584 0.67587656
000210 cf 3d ae be d1 43 8e 3f 28 0a 35 3f 83 54 1c 3f
       -0.3403153 1.1114446 0.7071862 0.61066455
000220 54 e9 c2 3d db a4 9f be c4 89 cd bd 90 1c 88 bf
       0.0951716 -0.31180462 -0.10036042 -1.0633717
000230 81 a9 63 bf 93 87 f3 3d 2f de c7 be c4 07 10 be
       -0.8893052 0.11891093 -0.390367 -0.14065462
000240 d2 b8 55 3e 44 0f 85 be 81 5d 30 3e 7b 9b 43 3e
       0.20871285 -0.2598821 0.17223169 0.1910228
000250 87 60 e4 3e 71 5f 42 bf 53 c6 a6 bd 52 f4 c2 3d
       0.44604895 -0.7592688 -0.08143296 0.09519257
000260 f6 1b 0c 3f bd 40 63 3f 76 64 b9 bc 5d cd 4b be
       0.54730165 0.8877066 -0.022630911 -0.19902559
000270 c9 05 1c 3f 89 d0 76 3e 03 27 79 bf a3 8d e2 bd
       0.6094633 0.24102987 -0.9732515 -0.11062171
000280 d0 e5 65 bd 8d 52 eb 3e 2a ef e5 3c 56 3d 96 bb
       -0.05612737 0.4596142 0.028068144 -0.0045849485
000290 1f 25 03 bf 5c a6 18 3f 13 5f 34 be de 90 1a 3d
       -0.5122852 0.59628844 -0.17614393 0.037735812
0002a0 5c 2f 9e be de 64 ec 3d 8f 77 00 3e 41 c7 11 bf
       -0.30895507 0.115426764 0.12545608 -0.5694466
0002b0 39 ba ad bd a5 57 43 3c e3 53 26 bf 35 96 a3 be
       -0.08482785 0.011922752 -0.6497175 -0.31950536
0002c0 1c 89 e4 bd 7c 6b 1a 3e c6 3b 70 bf 49 ad 0c 3e
       -0.11158964 0.15080065 -0.9384121 0.13737978
0002d0 50 2b 47 bd d0 b6 b3 3e 8b b6 aa 3c 09 e3 6a be
       -0.04862529 0.35100412 0.020838996 -0.2293817
0002e0 6c 15 77 3e 55 52 d8 3e 12 f2 62 bd 85 4c 21 be
       0.24129266 0.42250314 -0.055406637 -0.15751846
0002f0 cb ba 35 bd 0e 82 0e 3f 28 b1 c2 3d df e6 dc bd
       -0.044367593 0.556672 0.09506446 -0.10786223
000300 ef 92 f6 3d 56 ff 1d 3f 4c 83 d9 be c9 6a fb 3c
       0.12039744 0.61717737 -0.42482984 0.030690568
000310 48 67 64 bf 83 3e 8d be 58 48 f7 be 5c c7 00 bf
       -0.89220095 -0.27586755 -0.4829738 -0.503042
000320 32 5b 92 be c9 ca 81 be 0f a7 e5 3c a2 67 a6 3b
       -0.28585202 -0.25350025 0.028033761 0.005078272
000330 7b 77 8c be 9d 86 53 3f 54 13 0f 3e 4a c1 b8 be
       -0.27434906 0.8262728 0.13972217 -0.36084968
000340 8b ad f3 3e 05 15 1c bf db de 9d 3e 75 d1 5b 3e
       0.4759334 -0.60969573 0.30834088 0.2146662
000350 d0 eb f0 be 30 28 af be b4 2f 47 bf 09 bd 35 be
       -0.4705491 -0.34210348 -0.77807164 -0.17747892
000360 fd f8 fb be 91 d0 06 3e be d9 1f be 1b 86 85 3e
       -0.492134 0.131655 -0.15610406 0.26078877
000370 4b 7c 8b 3e 48 fa 8d bf e6 e7 1c bf df c1 c4 be
       0.27243266 -1.1092005 -0.6129135 -0.38429162
000380 70 24 47 3d 98 9f fc be 3d e6 96 3e 28 dd 01 3e
       0.048618734 -0.4934051 0.29472533 0.1268202
000390 ae 40 89 3f c8 6b ff be 90 e4 42 bd 64 23 c9 bd
       1.0722864 -0.49886918 -0.047581255 -0.09821203
0003a0 9a 84 06 3f 77 8b 02 bf d7 34 96 3e 78 36 bd 3e
       0.52546084 -0.50994056 0.2933719 0.3695562
0003b0 06 1a b8 3e f3 19 da bb 28 6b 31 3f 67 e8 1f 3f
       0.35957354 -0.0066559254 0.6930413 0.6246399
0003c0 f5 2d 25 bf 46 fd 9d bd 5d e6 47 3e 22 c2 d6 be
       -0.6452325 -0.07714324 0.1952147 -0.41944987
0003d0 cd ba a2 be cc 28 12 3e 6a 8f 85 bd 6e 3d 1e 3e
       -0.31783143 0.14273375 -0.06521495 0.15453121
0003e0 72 42 18 bd 9d 46 78 bf fa 9d 92 3e 28 16 a4 3d
       -0.037172742 -0.9698275 0.28636152 0.080120385
0003f0 91 d7 f8 3d bd c1 82 3e 2f 0b 2e 3f d5 f5 bd 3e
       0.12150491 0.25538436 0.67985815 0.37101617

traj_lstm_model.bias_ih f4 [128]
000000 75 0b 18 be eb 74 73 3f 14 f1 82 3f d2 1d 8d 3f
       -0.1484812 0.9510028 1.0229821 1.1024725
000010 fd b4 e7 be 01 80 53 3f f3 61 ab be 81 3c dc 3f
       -0.4525527 0.82617193 -0.33473167 1.7205964
000020 f2 e5 62 3f cd a2 87 3f b2 13 23 bc b5 da c1 3f
       0.8863212 1.0596558 -0.009953426 1.5144869
000030 45 29 35 3f 94 cd 80 3f d0 a8 1a 3e 16 b2 a3 3f
       0.707661 1.0062737 0.1510346 1.2788723
000040 88 b4 be 3e 63 04 70 3f 53 1a 5a 3e f0 35 49 be
       0.3724711 0.93756694 0.21299104 -0.19649482
000050 8f 6d 69 3e de 14 ef be 6d 7c 2e bf 63 03 35 3f
       0.227957 -0.46695608 -0.6815861 0.7070829
000060 94 e4 b1 3f ad 38 8d 3f c8 b6 89 3f 41 5c 52 3e
       1.3897882 1.1032921 1.0758905 0.20543005
000070 21 fb 0b 3f 13 0b cc be 78 3d 3d 3e b2 82 0e 3f
       0.5468007 -0.398522 0.1848048 0.55668175
000080 0a 37 22 c0 64 9a 1e c0 5d 80 37 c0 9f f0 3e c0
       -2.5346093 -2.4781733 -2.8672097 -2.9834363
000090 0e 99 1d c0 78 88 0b c0 39 13 0d c0 c1 ba 21 c0
       -2.4624667 -2.1802044 -2.2042983 -2.5270236
0000a0 4d a8 0b c0 ce b7 0d c0 7f 91 f2 bf 43 98 09 c0
       -2.1821473 -2.2143435 -1.8950652 -2.1499183
0000b0 0d a5 27 c0 08 29 16 c0 53 ba 2b c0 d8 2f 05 c0
       -2.619449 -2.3462543 -2.6832473 -2.0810452
0000c0 02 6a 37 c0 5f 4b 31 c0 91 a7 24 c0 b1 3e 4d c0
       -2.8658452 -2.7702253 -2.5727274 -3.2069514
0000d0 03 dd 29 c0 dc 3e ba bf 09 0f b0 bf 00 0e 46 c0
       -2.6541145 -1.4550433 -1.3754588 -3.0946045
0000e0 58 c8 29 c0 7a d4 ef bf 00 58 36 c0 99 29 d4 bf
       -2.652853 -1.8736718 -2.849121 -1.6575195
0000f0 8f 29 f7 bf 4f 8b 42 c0 55 85 23 c0 16 d9 2b c0
       -1.9309558 -3.0397527 -2.555013 -2.6851249
000100 7b 31 81 3f 60 fb 01 bf 69 c9 a1 be 8f 2f 9a 3c
       1.0093225 -0.5077419 -0.31598976 0.018821506
000110 17 bf f6 3c 45 2c 72 bf db 05 cf bd 04 e4 23 3f
       0.030120416 -0.945988 -0.10108539 0.640198
000120 ad bf 1b 3f 50 b0 30 be 73 e8 0a bf 94 7c 83 3f
       0.6083935 -0.17254758 -0.5426094 1.0272393
000130 a7 be 0a 3e bb b0 fe 3e cb bd a6 be 4c 0c b8 3f
       0.1354929 0.4974421 -0.32566676 1.4378753
000140 e1 ca 1c bf 18 68 c3 3e a9 e0 a9 bd d1 ac a4 be
       -0.6124707 0.38165355 -0.08294804 -0.32163098
000150 7d d0 60 3f 3f e0 12 bd 01 1e b3 3d d9 30 6c 3f
       0.8781813 -0.03585839 0.08745957 0.92262036
000160 90 07 0b 3c e0 8a bb bf aa cc 1c be 30 2c 82 3f
       0.00848569 -1.4651756 -0.15312448 1.0169735
000170 00 6f e3 be bc e9 1c bf 11 bc 43 be e9 1d d0 3e
       -0.44420624 -0.6129415 -0.1911471 0.4064782
000180 02 eb b3 bf 11 88 91 3d 51 51 c4 3e f5 22 08 3f
       -1.4056094 0.07106031 0.3834329 0.5317834
000190 62 c1 a2 bf 5f 7d fd 3c 63 2f aa bf 69 c0 30 bd
       -1.2715266 0.03094357 -1.3295711 -0.043152247
0001a0 09 4b 07 bf b5 02 48 3e 85 67 2f bf c4 20 01 3f
       -0.5284887 0.19532283 -0.68517333 0.5044062
0001b0 b3 09 48 3e 9f 56 e7 bd 71 c1 b5 bf 0e 6c 92 3e
       0.1953495 -0.112958185 -1.4199659 0.28598064
0001c0 a8 db af be a4 e6 78 bd a4 f9 96 bf 16 fd 91 bf
       -0.34347272 -0.06076683 -1.1794934 -1.1405361
0001d0 11 b8 88 bf d5 56 d0 bf 74 b7 8f bf 83 7a 07 bf
       -1.0681173 -1.6276499 -1.122786 -0.52921313
0001e0 3e 5b 00 3f 28 24 f6 bd 1f d3 b6 3e 2d 97 32 bf
       0.50139225 -0.12018615 0.35707948 -0.69761926
0001f0 ca 71 07 bf 37 ca 88 bf b0 21 9e bf 55 ab cb bc
       -0.52908003 -1.0686711 -1.2354031 -0.02486197

traj_lstm_model.bias_hh f4 [128]
000000 9f f1 b3 bd 92 62 8f 3f 7e 25 33 3f 76 e5 94 3f
       -0.0878632 1.1201956 0.69979084 1.1632526
000010 70 dc c5 be e9 23 0b 3f 73 f2 9f be cf f3 db 3f
       -0.38644743 0.5435167 -0.31239662 1.718378
000020 99 0c 6e 3f 51 ed 83 3f 95 a9 33 3e 4b 63 b6 3f
       0.9298797 1.0306798 0.17545159 1.4249052
000030 42 26 18 3f 75 19 54 3f 94 f1 d4 3d 60 24 8f 3f
       0.59433377 0.82851344 0.1039764 1.1182976
000040 81 20 9e 3e d2 ee 40 3f f6 89 d7 3d 24 48 d5 be
       0.30884174 0.7536441 0.10524361 -0.416566
000050 f7 e6 9c 3d 77 00 f7 be 59 b0 ff be b0 1c 25 3f
       0.076612405 -0.48242542 -0.4993923 0.644969
000060 a8 d0 ba 3f 0e d8 95 3f 46 36 64 3f c6 cd db 3e
       1.4594927 1.170656 0.89145315 0.4293043
000070 8f b1 11 3f 16 35 cd be 0b 12 9e 3e fd 80 17 3f
       0.5691156 -0.40079564 0.3087314 0.59181195
000080 e5 31 1d c0 72 de 1c c0 bd 68 2d c0 3e 1d 2f c0
       -2.4561703 -2.451077 -2.7095177 -2.7361598
000090 57 57 14 c0 33 01 1d c0 d6 13 18 c0 7a 5f 20 c0
       -2.3178308 -2.4531982 -2.3762107 -2.5058274
0000a0 e3 f8 0e c0 bc ae 1d c0 47 b6 ed bf 5d f5 fe bf
       -2.2339408 -2.46379 -1.8571252 -1.9918629
0000b0 bd 4c 25 c0 0c 87 16 c0 fc b2 23 c0 4e cf 00 c0
       -2.5828087 -2.3519926 -2.5577993 -2.0126529
0000c0 a0 b6 37 c0 5d 84 29 c0 93 1d 1a c0 5d 7c 41 c0
       -2.8705215 -2.6487038 -2.408055 -3.0232155
0000d0 95 c2 24 c0 86 8d ae bf e3 f4 be bf d2 a0 3b c0
       -2.5743763 -1.363694 -1.4918483 -2.9316907
0000e0 bc b9 18 c0 fe 33 00 c0 d9 4c 2b c0 ef 4f c7 bf
       -2.3863363 -2.0031734 -2.6765654 -1.5571269
0000f0 c3 c4 f5 bf 8d 63 42 c0 9e c8 24 c0 96 f5 25 c0
       -1.9200672 -3.037326 -2.5747447 -2.5931144
000100 b5 6b 78 3f c4 b0 1b bf c2 5e c6 bd 49 66 e2 bb
       0.9703935 -0.608166 -0.09686042 -0.006909166
000110 06 08 99 3d 9c 5b 52 bf 59 f4 29 be 9a cd 33 3f
       0.074722335 -0.82171035 -0.16597117 0.702356
000120 31 c7 3a 3f 1e f4 ee be a0 c7 f4 be af 88 7d 3f
       0.7296019 -0.46670622 -0.47808552 0.9903669
000130 e2 de 97 3e a2 f3 59 3e 3e f2 ce be a1 fb ae 3f
       0.29662234 0.21284345 -0.4041919 1.3670541
000140 31 48 33 bf 58 42 0e 3f 49 e6 9f bd 24 a6 1e bf
       -0.7003203 0.5556998 -0.07807595 -0.6197226
000150 45 46 4c 3f e0 fc 7c 3d 37 69 32 bd 6d 3d 5f 3f
       0.7979472 0.061764598 -0.043557372 0.87203103
000160 87 cb 28 bd 01 23 ba bf f4 fb b9 3d 0c b3 81 3f
       -0.041209724 -1.4541932 0.09081259 1.0132766
000170 a3 d5 f7 be f9 27 bb be bb 77 f6 bd bb d3 cf 3e
       -0.4840518 -0.36553934 -0.120345555 0.40591225
000180 c9 7c b0 bf 71 75 b4 3c 90 c8 ce 3e 07 6f 10 3f
       -1.3788081 0.022028657 0.40387392 0.56419414
000190 6a c4 a8 bf 50 8a 56 3d 48 09 cf bf 48 b7 93 bd
       -1.3184941 0.052378 -1.6174707 -0.072126925
0001a0 c4 b2 bc be 0c 74 ff 3d 5a d3 44 bf 80 fc 99 3e
       -0.36855137 0.12473306 -0.76884997 0.30075455
0001b0 93 77 aa 3e ac 34 62 be 09 13 b5 bf 12 87 cd 3e
       0.33294353 -0.22090405 -1.4146434 0.40142113
0001c0 f8 3b 95 be 5f 15 b7 bd 11 51 88 bf aa 26 ae bf
       -0.29147315 -0.08939623 -1.064974 -1.3605549
0001d0 82 82 89 bf c0 1e ca bf 8c 90 a0 bf 9d 7f ec be
       -1.0742953 -1.5790634 -1.2544112 -0.4619111
0001e0 f8 16 ce 3e 73 d2 31 be 32 e8 79 3e b1 db 68 bf
       0.402519 -0.17365436 0.24404982 -0.9096022
0001f0 7b 62 ba be 9a 78 6e bf 82 66 a4 bf 5f 50 8b be
       -0.3640326 -0.93152773 -1.2843783 -0.27209756

graph_lstm_model.weight_ih f4 [128, 32]
000000 40 58 07 be d6 20 a6 3a fc 7a 59 3e ff f3 2d be
       -0.13217258 0.0012674581 0.21238321 -0.16987608
000010 b8 64 8b be c7 33 af 3d 6b ea 4c bd 42 68 9a 3e
       -0.2722528 0.085547976 -0.050028246 0.30157667
000020 30 c7 81 be 71 1d e9 bc 94 85 84 3e 42 e1 85 bd
       -0.2534728 -0.028456422 0.25883162 -0.06537105
000030 b7 02 e0 bd a2 84 0e 3c a7 7a 94 3e 93 af ba 3d
       -0.10938018 0.008698614 0.28999826 0.091155194
000040 1d ad 32 bd 79 d0 47 3e 98 43 7a 3e b0 20 48 bc
       -0.043622125 0.1951312 0.24439847 -0.012214825
000050 05 51 c7 bc b2 20 ba bc ea af 26 3e 10 e1 5d 3d
       -0.024330625 -0.022720668 0.16278043 0.054169714
000060 93 af 3f be 4d 38 86 be 11 15 ca 3b df 9c 0b 3e
       -0.1871932 -0.2621483 0.006167062 0.1363406
000070 00 c0 8c be 0d 86 da bc fe b8 ec bd 14 9c 9a bd
       -0.27490234 -0.026675249 -0.11558722 -0.07549301
000080 d7 5b f7 3c 0e 93 74 3c da 25 f2 3d a0 64 4f bc
       0.03019516 0.014927639 0.11823626 -0.012658268
000090 f4 b0 a6 3d 26 a2 7f 3d 6d 4c 3d bd 8b e1 b0 bd
       0.0813922 0.062410496 -0.046215463 -0.08636769
0000a0 e0 04 13 be 18 4f ed bd 69 4a 1c 3e 37 36 59 3e
       -0.14357328 -0.115873516 0.1526276 0.21212088
0000b0 1a 89 d0 bc 47 07 20 3e bd 21 99 3d e5 67 08 3e
       -0.025456 0.15627776 0.07477138 0.13320883
0000c0 27 09 db 3d c6 b1 c2 bb bb 4d af bb f5 86 15 3e
       0.10695105 -0.0059416024 -0.0053498424 0.14602263
0000d0 a0 7e 86 bd 3d c8 a6 3d 99 91 90 bd f5 9f 7f be
       -0.065671206 0.08143661 -0.070590205 -0.24963363
0000e0 dc dd 5b be ca 42 db 3c b4 6d 95 bd 98 24 0b 3e
       -0.21471351 0.026765246 -0.07296315 0.13588178
0000f0 d0 0a 87 be f6 70 5c 3e 96 72 60 bd cb be da bd
       -0.26375437 0.21527466 -0.054796778 -0.10680922
000100 97 bf b4 3d 66 a6 14 bd 9e 36 3b 3e c5 c2 af 3c
       0.08825605 -0.036291502 0.18282554 0.021455178
000110 02 10 01 3d f4 4c 2d be ba 7d 8b 3d fb 43 16 be
       0.031509407 -0.16923887 0.0681109 -0.1467437
000120 ec 46 98 bc 21 c7 1e be 85 25 5e be 0b 49 09 3e
       -0.018588506 -0.15505649 -0.21694 0.1340677
000130 16 57 d7 bc 96 85 f1 bb 13 f3 23 bd c8 93 c4 bc
       -0.026286643 -0.007370661 -0.040026736 -0.023996249
000140 2c 19 3d 3e 60 81 c7 3d a6 28 d1 bd 31 46 c6 bc
       0.18466634 0.09741473 -0.10212831 -0.024203392
000150 72 74 71 bd 1c 6f 2d bd f3 96 57 bd 82 d5 3a 3e
       -0.05894894 -0.04234229 -0.05263419 0.1824551
000160 7a 6c 2d be 51 00 0c be ce 0e c4 3b fd 78 53 3d
       -0.16935912 -0.13671996 0.00598321 0.051629055
000170 68 17 ad bd ae 26 fb bc ab 42 5d 3e a5 76 bc 3c
       -0.0845173 -0.030658092 0.21607463 0.023005793
000180 94 b6 8f bc 8a 67 30 3e b2 d1 54 3e a4 08 29 be
       -0.017543115 0.17226997 0.20783117 -0.16507202
000190 e1 2b 2f be 03 4d 2b be 97 7a 49 be 35 91 86 bd
       -0.17106582 -0.16728596 -0.1967567 -0.06570665
0001a0 8d bf 8e bd ea a8 b0 bd e1 ed 23 3e f1 c3 16 be
       -0.06970129 -0.08625968 0.16008712 -0.14723183
0001b0 d1 ba 8b 3d 05 e6 30 bd af 66 f0 3d 53 98 c9 3c
       0.06822742 -0.043188114 0.11738335 0.024608767
0001c0 59 38 f7 3c 40 98 3d 3e df 7f 32 bd 0d 23 ee 3c
       0.030178236 0.1851511 -0.04357898 0.029069448
0001d0 d8 bd 3d 3d d6 f5 d3 3c b9 ef 70 3e 89 c9 a8 bd
       0.046323627 0.02587406 0.23528947 -0.08241565
0001e0 22 15 56 be b7 b7 27 be f6 84 f7 3d c3 c5 88 bc
       -0.20906499 -0.16378675 0.12085907 -0.016695863
0001f0 68 e4 bd 3c ce b9 be 3d ab 45 08 be d1 e1 f4 3d
       0.023180202 0.09312783 -0.13307826 0.119571336
000200 80 3c be bc b8 7c 54 bd 3e 3d 5e bc 5d 7b 39 3e
       -0.023222208 -0.051876754 -0.013564406 0.18113466
000210 79 a6 16 be ca 56 cf 3d e4 2c ad 3d 76 07 b5 3d
       -0.14711942 0.101239756 0.08455828 0.08839314
000220 e3 cf 2f be fc 60 53 3c 49 d9 93 3d 0d b9 10 3d
       -0.17169146 0.012901541 0.07219178 0.03533273
000230 82 1f 67 3d d3 11 26 3e 8f e4 29 3d 8c 78 80 3d
       0.056426533 0.16217737 0.041477736 0.062729925
000240 eb 8c 58 bd 83 b0 34 bd 30 ac a7 3d e2 80 de bb
       -0.052868765 -0.044113647 0.08187139 -0.0067902664
000250 cb 7a 13 be 59 e7 91 bd 17 cd d3 bd f8 4b b4 bd
       -0.1440231 -0.07124204 -0.10341852 -0.088035524
000260 00 98 04 be d8 68 24 be 48 17 55 3d 14 9d 39 3d
       -0.12948608 -0.1605562 0.052024156 0.045315817
000270 99 b2 51 bd 9e 1d 42 3e f9 45 3e 3d 10 5a 45 3d
       -0.051195715 0.1895661 0.04645345 0.048181593
000280 f2 77 2a be fe 9e d0 3d 9d 3b 3e 3e ad 0b 9b bd
       -0.16647318 0.10186575 0.18577428 -0.07570586
000290 c8 38 08 be a0 01 e1 bd bf 3a ec bd 1b d8 ae bd
       -0.1330291 -0.10986638 -0.115346424 -0.085373126
0002a0 aa 0b 86 be 9e 40 1b 3e 78 7b ef bd b9 bb 16 3d
       -0.26180774 0.15161368 -0.11693472 0.03680012
0002b0 0a ec 24 3e b0 33 88 3d 68 9d 0d 3c 1a 29 fc 3d
       0.16105667 0.066504836 0.008643486 0.12312527
0002c0 7b 93 a9 3d e2 3d 0e 3e 19 25 a4 bd 08 18 61 3e
       0.08280083 0.13890794 -0.08014888 0.21981823
0002d0 34 3b 18 3e c4 b8 45 be bb 86 dc 3c a7 2c 81 bd
       0.14866334 -0.19308764 0.026919713 -0.06307345
0002e0 cd 0d 8b 3d e3 09 39 be 43 a7 1f bd 1f a2 1d be
       0.06789742 -0.18070178 -0.038977873 -0.15393876
0002f0 d2 e0 55 3d af c8 df 3d 66 a2 83 3d 14 8b a8 3c
       0.05221636 0.10926949 0.064274594 0.02057413
000300 70 e0 92 bd ad 9b d9 3d 15 b4 01 3e 94 c0 60 3e
       -0.07171714 0.10625396 0.12666352 0.21948463
000310 a0 58 31 bd f5 15 f2 bd 4b 32 48 3d 69 a6 8f bb
       -0.04329741 -0.11820594 0.048876088 -0.0043838513
000320 79 2b 31 be 96 96 c8 bd 73 b4 9f bd 8f 9b 9e 3e
       -0.1730174 -0.09794347 -0.0779809 0.30978057
000330 ec 29 cc 3d 74 a7 0c 3e 92 4e 48 3d 59 42 35 3d
       0.099689335 0.13735753 0.048903055 0.044252727
000340 9c 49 2d bd 90 43 24 be 0b 1b 03 3e 45 65 ab bd
       -0.042306527 -0.16041398 0.12803285 -0.08368925
000350 bf d5 2d be d7 1f 30 be f3 a5 8e bd 63 34 86 bc
       -0.16976069 -0.17199646 -0.06965246 -0.016382402
000360 5f 53 79 be eb 33 d5 bd ad 3e a6 bd 38 3c 50 3c
       -0.2434821 -0.10410293 -0.08117423 0.01270967
000370 01 51 c9 3d fb 66 2c 3e a0 b9 11 3e 7c 48 43 3e
       0.098299034 0.16836159 0.14230967 0.1907062
000380 76 89 9a bd cc 1e 12 bd 2f 5d 2a bd a5 b2 64 3e
       -0.0754575 -0.0356739 -0.041592773 0.22333772
000390 4d 8b bb 3d 99 05 85 bd 18 e0 c0 3d 94 d0 0b be
       0.09157429 -0.06495208 0.094177425 -0.13653785
0003a0 50 74 1e be 29 55 50 be 71 bc b5 bc b4 c4 9d 3e
       -0.15474057 -0.20344986 -0.022184582 0.30814135
0003b0 1c be f6 3c 4d 49 eb 3d 75 46 30 bc 92 88 c9 bd
       0.030119948 0.114885904 -0.010758986 -0.09840502
0003c0 ee 4d 60 3e 3e 9c 51 bd 12 33 1e 3e b9 68 e2 3c
       0.21904728 -0.051174395 0.1544917 0.027637826
0003d0 25 13 19 be 7a e6 c3 3d 2c 90 b7 bd 3b ce 40 be
       -0.1494871 0.09565444 -0.089630455 -0.1882867
0003e0 6d 6f c9 be 61 b1 0e 3d 4e ad 06 be a1 75 43 bd
       -0.39342824 0.03483713 -0.13152048 -0.0477196
0003f0 3e de 9a bc c3 0b b0 3e ce 8c f6 3c b2 30 16 3d
       -0.018904801 0.34383973 0.030096438 0.036667533
